numberModel.pth (torch, 440581 bytes, 6 tensors)

fc1.weight f4 [128, 784]
0	0xbba70dc0	-0.0050980747
1	0xbc0c6b0a	-0.008570442
2	0x3b304330	0.0026895516
3	0xbb50a6d0	-0.003183771
4	0xbd056930	-0.032571018
5	0xbcaa016a	-0.020752627
6	0xbcc79be5	-0.024366328
7	0x3c9da4b2	0.019243572
8	0xbc3ca826	-0.011514699
9	0x3c700fb8	0.014652185
10	0xbc59bcee	-0.013289673
11	0x3a54a1c0	0.0008111261
12	0xbd130779	-0.0358958
13	0xbc9a15d1	-0.018809231
14	0x3c974626	0.018466067
15	0xbbda976a	-0.006670882
16	0x3b6d0fd0	0.0036172755
17	0xbcd996e3	-0.026561206
18	0x3c977778	0.018489584
19	0x3d0d168f	0.03444534
20	0x3cc1cbf2	0.023656819
21	0x3cb2378e	0.021755006
22	0x3c89d6f0	0.016826123
23	0x3c31d914	0.010854978
24	0xbc769c8a	-0.01505197
25	0xbbf4de70	-0.0074728057
26	0xbc8972bc	-0.016778342
27	0xbbdd961c	-0.006762279
28	0xbb4236a0	-0.002963461
29	0xbc27f3e6	-0.010251021
30	0x3d006017	0.03134164
31	0x3d0f94c3	0.03505398
32	0xbcd309e6	-0.025761556
33	0xbb602853	-0.0034203723
34	0x3c0a3494	0.008435387
35	0x3c395438	0.011311583
36	0xbc4084bf	-0.011750399
37	0xbd25a843	-0.04044367
38	0xbd11109e	-0.035416238
39	0xbc23a29e	-0.009987501
40	0xbd45a882	-0.048256405
41	0xbcb374da	-0.021906305
42	0xbda010c9	-0.078157015
43	0xbd520c35	-0.051281173
44	0xbdd2f6b0	-0.10300958
45	0xbd87b4ed	-0.06626306
46	0xbca9ca5a	-0.020726372
47	0xbdd39654	-0.10331407
48	0xbdd2d28e	-0.10294066
49	0xbdead330	-0.11466062
50	0x3cfb3b5e	0.030667957
51	0x3c539290	0.012913361
52	0xbcfe671e	-0.03105503
53	0x3c0e6280	0.008690476
54	0xbd0fd23a	-0.035112597
55	0x3bada528	0.005299229
56	0xbc9272ea	-0.01787706
57	0x3b865798	0.0040997975
58	0xbd111253	-0.035417866
59	0xbd0f3633	-0.034963798
60	0x3cb03e63	0.021514123
61	0x3c4dc2c8	0.0125586465
62	0xbd1ea251	-0.038729016
63	0xbc65436e	-0.013993127
64	0xbd4ae2ac	-0.049532577
65	0xbb8daf5b	-0.0043238825
66	0x3d4f4e6d	0.050611902
67	0xbe082851	-0.1329663
68	0xbe6f64bc	-0.23378271
69	0xbe6f6e79	-0.23381986
70	0xbd550d12	-0.052014418
71	0xbdc2f80b	-0.09519967
72	0xbda58d69	-0.080836125
73	0xbe0d4be9	-0.13798489
74	0xbd2e7692	-0.042593546
75	0x3dd8ee49	0.10592324
76	0xbcc5f1a2	-0.024163071
77	0xbeacecde	-0.33774465
78	0xbe1516b7	-0.14559446
79	0xbe3e69d7	-0.18595062
80	0xbd97babb	-0.07408663
81	0xbb1f6835	-0.0024323587
82	0x3c20ceb0	0.009814903
83	0x3c0ed6d0	0.0087182075
84	0xbca8cc8e	-0.020605352
85	0x3cb35ca8	0.021894768
86	0x3c2b2516	0.010445854
87	0xbc07f31a	-0.008297706
88	0x3e19c448	0.15016282
89	0x3cc5792a	0.024105627
90	0xbe4627f8	-0.19351184
91	0xbe090fd4	-0.13384944
92	0xbea529d0	-0.32258463
93	0xbe3ca426	-0.18421993
94	0x3d8126f9	0.063062616
95	0x3c7652f2	0.015034424
96	0xbcc398d2	-0.023876581
97	0xbe009413	-0.12556486
98	0xbdaf0a08	-0.08546835
99	0x3d851ead	0.064999916
100	0xbca79d41	-0.020460727
101	0x3d883c72	0.06652154
102	0x3e819522	0.25309092
103	0xbda80724	-0.08204487
104	0xbd8e86e8	-0.06959325
105	0x3e1f21f4	0.15540296
106	0x3da6278b	0.08113011
107	0x3de3ba22	0.111194864
108	0x3d7c8dd5	0.0616587
109	0x3dc4118f	0.095736615
110	0xbe2df659	-0.16988505
111	0xbc0d7544	-0.008633915
112	0x3c2bde18	0.010489963
113	0x3c3644a1	0.011124761
114	0xbe0d98e6	-0.13827857
115	0xbe163ddb	-0.14672033
116	0x3d55dc95	0.052212317
117	0x3e18932b	0.1489989
118	0x3e5cf66b	0.21578376
119	0x3e4d0b36	0.20023808
120	0x3c828c6c	0.015936099
121	0xbebaf95c	-0.3651837
122	0xbd64eeff	-0.055891987
123	0xbdd655e2	-0.104655996
124	0xbdc3cb29	-0.09560234
125	0xbe6b8880	-0.2300129
126	0xbdcecd56	-0.100977585
127	0x3c4f18fe	0.012640236
128	0x3dac37a2	0.084090486
129	0x3e04ca3f	0.12967776
130	0x3df9149c	0.12162134
131	0xbde9ebe3	-0.11421945
132	0xbb7f13bf	-0.0038921682
133	0xbca0669e	-0.019580182
134	0xbd8d16a8	-0.06889087
135	0x3cb55aad	0.022137964
136	0x3e8302de	0.25588125
137	0x3e9b9a6e	0.30391258
138	0x3e9009af	0.28132388
139	0xbc3acfdc	-0.011402097
140	0x3cf84d4a	0.030310292
141	0x3d032c31	0.032024566
142	0xbd93d960	-0.07219195
143	0xbde7520f	-0.11294948
144	0xbe05295a	-0.13004056
145	0xbd3f9e35	-0.046781737
146	0x3daeeb20	0.0854094
147	0x3dbdf354	0.09274927
148	0xbe558169	-0.20850147
149	0xbe9585e2	-0.29203707
150	0xbe815c6f	-0.25265834
151	0xbe028a5f	-0.12748097
152	0x3ce922aa	0.028458912
153	0x3c8f9763	0.017528242
154	0x3de1daee	0.11028086
155	0x3db62991	0.08894647
156	0x3d0e348e	0.03471809
157	0x3d6cc7f2	0.05780787
158	0xba86862e	-0.0010263377
159	0xbcaead97	-0.021323008
160	0x3e227f4d	0.15868874
161	0x3db81427	0.08988219
162	0xbdf5ec36	-0.12007944
163	0xbe5e7721	-0.21725132
164	0x3cfc77c2	0.030818824
165	0x3e3965fa	0.18105307
166	0x3e77c976	0.24197945
167	0x3cb23130	0.02175197
168	0x3c0ff99c	0.008787539
169	0x3c4c9840	0.012487471
170	0xbd7443ce	-0.059634976
171	0xbe205e73	-0.1566103
172	0xbd042b04	-0.032267585
173	0xbc3edae9	-0.011648872
174	0xbe03736b	-0.12836997
175	0xbe3ec624	-0.18630272
176	0xbebc030e	-0.3672108
177	0xbea217c6	-0.31658763
178	0xbec4bd72	-0.38425785
179	0xbd00c98b	-0.031442206
180	0x3985c5a6	0.00025514996
181	0x3e1e047e	0.15431401
182	0x3e0702b2	0.13184622
183	0x3e5827df	0.2110896
184	0x3e4e3282	0.20136455
185	0x3dc764bc	0.097360104
186	0x3dbce73a	0.092237905
187	0x3e0375b6	0.12837872
188	0x3e25a600	0.16176605
189	0x3d2c13ee	0.042011194
190	0xbe1644f0	-0.14674735
191	0xbd854742	-0.06507732
192	0x3e50ffbf	0.2041006
193	0x3d7f251a	0.062291242
194	0x3e5fc356	0.21851858
195	0x3de1e853	0.110306405
196	0x3c8c19b8	0.017102107
197	0xbea564bd	-0.3230342
198	0xbd8fcff3	-0.07022085
199	0xbe890866	-0.2676422
200	0xbe81fa6f	-0.25386378
201	0xbe60522c	-0.21906346
202	0xbeecb4c5	-0.46231666
203	0xbf27f21c	-0.65603805
204	0xbe8d0214	-0.27540648
205	0xbe7c15dd	-0.24617715
206	0xbe1949ee	-0.14969608
207	0x3cddb519	0.027063893
208	0x3da34704	0.079725295
209	0x3e46eaf5	0.19425566
210	0x3dce8877	0.10084622
211	0x3e8884d4	0.2666384
212	0x3e239a50	0.15976834
213	0x3d62b195	0.055345137
214	0xbcc59730	-0.024119943
215	0xbcc102d5	-0.02356092
216	0x3e12da29	0.14341034
217	0x3df92fdc	0.121673316
218	0x3d636472	0.055515714
219	0xba901186	-0.001099155
220	0x3d77b27e	0.060472958
221	0x3d1692da	0.036761142
222	0x3ead08c5	0.33795753
223	0x3dce9ac3	0.10088112
224	0xbd0ddf38	-0.034636706
225	0xbeaa7cf9	-0.33298472
226	0xbe1f9cfa	-0.15587226
227	0xbe7242e2	-0.23658326
228	0xbe8f7173	-0.28016242
229	0xbed85f0a	-0.4226001
230	0xbe2bc04b	-0.16772573
231	0xbea87cb7	-0.3290765
232	0xbe010bd5	-0.1260217
233	0xbdd35064	-0.10318068
234	0xbb84b32e	-0.00404968
235	0x3dbe2dbd	0.09286068
236	0x3d92cdb3	0.0716814
237	0x3ce6f40a	0.028192539
238	0xbbec1150	-0.0072042122
239	0x3ba21bca	0.0049471604
240	0x3d55086a	0.052009977
241	0xbd1a9d15	-0.03774746
242	0x3d3b828a	0.04577879
243	0x3d8814fa	0.06644626
244	0x3b0369ea	0.0020052143
245	0x3d0c565b	0.034262042
246	0x3d5a8e0f	0.053358134
247	0xbcf2ee5d	-0.029654676
248	0x3eb5c4f9	0.3550184
249	0x3c38d7f7	0.011281959
250	0x3e0d6de0	0.13811445
251	0x3e72f75e	0.23727176
252	0xbd92846c	-0.07154164
253	0xbe40010f	-0.18750404
254	0xbdf2cad3	-0.11855092
255	0xbe8082d8	-0.25099826

fc1.bias f4 [128]
0	0x3c896ed5	0.016776482
1	0xbd958bcd	-0.073020555
2	0xbcae5827	-0.021282269
3	0xbe1005b7	-0.1406468
4	0x3dc6f9f7	0.09715646
5	0xbe101da2	-0.14073804
6	0x3e23698f	0.15958236
7	0xbd68f5b4	-0.056874946
8	0xbde5f466	-0.11228256
9	0x3d6cafcd	0.057784844
10	0xbb5cc8a8	-0.0033688936
11	0xbe161a26	-0.14658412
12	0x3bfbece3	0.007688151
13	0xbc084a87	-0.00831855
14	0x3e602638	0.2188958
15	0xbd471e91	-0.048613135
16	0x3cb38d6a	0.021918017
17	0x3d23f1eb	0.040025633
18	0x3d404e2d	0.046949554
19	0xbdd31f97	-0.1030876
20	0x3b25e14e	0.0025311294
21	0x3e7d01d1	0.24707724
22	0x3e9bf602	0.30461127
23	0xbcf9c5a8	-0.030489758
24	0xbd08ae28	-0.033369213
25	0x3da4c033	0.080444716
26	0x3d5f32ff	0.054491993
27	0xbcaa26dd	-0.020770485
28	0x3bad06c2	0.0052803466
29	0x3e147bac	0.14500302
30	0xbc4df3ff	-0.01257038
31	0xbd32dbae	-0.043666534
32	0xbbb5250c	-0.005528098
33	0x3e55dc53	0.20884828
34	0x3dc27c9b	0.09496423
35	0x3e919333	0.28432617
36	0x3e071b34	0.13193971
37	0x3dc50b27	0.09621268
38	0x3d3c31fd	0.04594611
39	0x3e05ad94	0.13054496
40	0x3cb5a3c0	0.022172809
41	0xbd466fa0	-0.048446298
42	0xbd6e9abd	-0.05825304
43	0xbc7a0b1f	-0.015261441
44	0x3d49a741	0.04923177
45	0xbc418ba6	-0.01181308
46	0xbce7e881	-0.028309109
47	0xbd940978	-0.072283685
48	0x3e60b253	0.21943025
49	0x3de3cffa	0.11123653
50	0x3b5b6497	0.0033476704
51	0x3dfed81e	0.12443565
52	0x3c207625	0.009793793
53	0xbd20097b	-0.03907154
54	0x3d36674c	0.044532105
55	0x3ccb1f25	0.024795124
56	0x3e6bf875	0.23043998
57	0xbd0c2585	-0.03421547
58	0x3d4af609	0.049551044
59	0xbc0b40d2	-0.008499341
60	0x3e26bdd0	0.16283345
61	0x3d78f3b8	0.060779303
62	0x3dacc0b5	0.084351934
63	0xbbe1123e	-0.0068686297
64	0xbdaf58f2	-0.08561887
65	0xbd260be3	-0.04053868
66	0xbd591de2	-0.053007014
67	0x3d0002c1	0.031252626
68	0xbd8b9b32	-0.068167105
69	0xbd6d5cd7	-0.057949867
70	0x3da51e7f	0.08062457
71	0xbe47720d	-0.194771
72	0xbde37d98	-0.111079395
73	0xbc67728d	-0.014126432
74	0x3a1ca2e0	0.0005975198
75	0x3d114ef5	0.03547569
76	0xbe2bbea8	-0.16771948
77	0xbd700ae1	-0.058604125
78	0xbda9fedd	-0.083005644
79	0x3d230ca2	0.03980697
80	0x3e44ca49	0.1921779
81	0xbd45d49b	-0.04829846
82	0x3e259113	0.16168623
83	0x3dee1cf0	0.11626613
84	0x3d83465a	0.06409903
85	0x3c3f1277	0.011662117
86	0xbd5dbe86	-0.054136775
87	0x3d836e86	0.06417565
88	0xbdc46564	-0.09589651
89	0xbe16c063	-0.14721827
90	0x3df7e88e	0.12104903
91	0xbd2a1d8a	-0.041532077
92	0x3d23c96d	0.039987016
93	0xbdaa8b2b	-0.083273254
94	0xbd378db5	-0.044812877
95	0xbd02242e	-0.031772785
96	0x3d4d8fb5	0.050185878
97	0x3e3784ec	0.179218
98	0x3da16ab1	0.07881678
99	0xbced30f2	-0.028954003
100	0xbe1ce45a	-0.15321484
101	0xbbbff445	-0.0058579766
102	0x3b191d52	0.0023363424
103	0x3d2690a6	0.04066529
104	0x3e1835ae	0.14864227
105	0x3da31aef	0.079641216
106	0x3e2230cc	0.15838927
107	0x3cee5159	0.029091524
108	0xbc5ab6db	-0.01334926
109	0x3e0aebb1	0.13566472
110	0x3eb21982	0.34785086
111	0xbcd71010	-0.026252776
112	0x3d0e7a6b	0.034784716
113	0xbd723697	-0.059134092
114	0x3dd25c60	0.102715254
115	0x3dba1f50	0.09088004
116	0x3c943fca	0.018096823
117	0x3dbfe83b	0.09370466
118	0xbddff0e9	-0.10934622
119	0x3cc4374e	0.023952153
120	0x3dab8ddf	0.08376669
121	0x3bdc571f	0.006724253
122	0xbd1c2194	-0.03811796
123	0x3ab7add8	0.0014013601
124	0x3c0e77c6	0.008695548
125	0x3dfb9eb3	0.12286129
126	0xbe0fb1ba	-0.14032641
127	0xbd12f012	-0.03587348

fc2.weight f4 [64, 128]
0	0x3b00539b	0.0019581083
1	0x3d804972	0.062640086
2	0xbcc71cc3	-0.024305707
3	0x3cf35be3	0.029706901
4	0xbd8cdef4	-0.068784624
5	0xbc1f2bbb	-0.009715016
6	0xbdc59abe	-0.09648655
7	0x3b8e437b	0.0043415404
8	0x3c8dd665	0.017314145
9	0x3d39ad26	0.045331143
10	0x3d997f5b	0.07494994
11	0xbdad4425	-0.08460263
12	0xbd8542d7	-0.06506889
13	0x3c51e9ed	0.01281212
14	0x3bcca4d6	0.006245236
15	0x3d2a0f66	0.04151859
16	0xbd8775a6	-0.066142365
17	0xbd71868b	-0.0589662
18	0xbbcad4a7	-0.006189901
19	0x3cb17557	0.021662397
20	0xbd3c306c	-0.045944616
21	0xbce2316c	-0.027611457
22	0xbd2e6f18	-0.042586416
23	0xbd039518	-0.03212461
24	0xbd9c0833	-0.076187514
25	0x3cff41e4	0.031159349
26	0xbd0a5518	-0.033772558
27	0xbdb437c1	-0.08799697
28	0xbd72fffc	-0.059326157
29	0xbdc11d2f	-0.094293945
30	0x3d37530f	0.044756945
31	0xbdd23e4f	-0.10265791
32	0xbdad7cf9	-0.08471102
33	0xbd4d37e5	-0.050102133
34	0x3d11bb99	0.035579298
35	0xbd3fef15	-0.046858866
36	0xbc2fe5d4	-0.010735948
37	0x3c3349f8	0.0109429285
38	0xbdeffe1c	-0.117183894
39	0x3d835d0e	0.06414233
40	0x39c95891	0.00038403695
41	0xbd43a4e7	-0.047764685
42	0xbd253877	-0.040337052
43	0x3d69e4f6	0.05710312
44	0x3d4985a1	0.049199704
45	0xbd851918	-0.06498927
46	0x3d268469	0.04065362
47	0xbdf082e2	-0.11743714
48	0xbcfda896	-0.030964177
49	0xbc8d9c14	-0.017286338
50	0xbd7e9557	-0.06215414
51	0xbc1b48ef	-0.009477838
52	0xbd8a408e	-0.06750594
53	0x3d0f314a	0.034959115
54	0xbc6e519b	-0.014545823
55	0x3d85359a	0.06504364
56	0xbdb89a70	-0.090138316
57	0xbd7fee4c	-0.062483117
58	0xbd590f6b	-0.05299322
59	0xbd09563a	-0.033529498
60	0xbd664c51	-0.056225125
61	0xbda67501	-0.081277855
62	0xbdca7faf	-0.09887635
63	0x3cb726ab	0.022357306
64	0xbd8000a4	-0.06250122
65	0xbc65d4d8	-0.014027797
66	0x3bfdb705	0.007742765
67	0x3d0e17e6	0.03469076
68	0x3d60914c	0.054826066
69	0x3c458741	0.012056173
70	0xbd0ec0ec	-0.034851953
71	0xbd89e9dc	-0.06734058
72	0xbd906c28	-0.07051879
73	0xbcf9dbc3	-0.030500298
74	0x3cc8ba37	0.024502857
75	0xbbcf0a25	-0.006318348
76	0xbc7b813c	-0.015350636
77	0x3ca24c2c	0.019811712
78	0xbd79da1a	-0.060999013
79	0x3c883872	0.016628478
80	0xbc9384b3	-0.018007612
81	0xbd1b8549	-0.037968908
82	0xbd8c4a1d	-0.068500735
83	0xbc06fd60	-0.00823912
84	0xbb6df369	-0.0036308414
85	0xbdbede09	-0.093196936
86	0xbdbfa74d	-0.09358082
87	0x3d28680f	0.041114863
88	0x3a362561	0.0006948319
89	0xbdaadf6f	-0.08343398
90	0xbc629943	-0.013830486
91	0xbd940236	-0.07226984
92	0xbd999558	-0.07499188
93	0xbd10e69f	-0.035376187
94	0xbd304e6e	-0.043043546
95	0xbd7778bd	-0.06041788
96	0x3ba2ca25	0.004967945
97	0xbd0a92a9	-0.033831272
98	0xbdb34b0f	-0.08754551
99	0xbd8362e6	-0.06415348
100	0xbb814565	-0.00394504
101	0xbd19e76f	-0.037574228
102	0xbccf98c2	-0.025341395
103	0x3d42416d	0.047425676
104	0xbdaf11b7	-0.08548301
105	0xbcddfd39	-0.027098285
106	0x3cd1fb2a	0.02563246
107	0xbd534240	-0.051576853
108	0xbd8cce06	-0.06875233
109	0x3d17cdc7	0.03706148
110	0xbda184c0	-0.07886648
111	0x3c7fda08	0.015615948
112	0xbd88a3ce	-0.06671868
113	0xbce34e76	-0.027747374
114	0xbcb84ba0	-0.022496998
115	0x3d0daa10	0.034586012
116	0x3d8aa20a	0.06769188
117	0x3a251e55	0.00062987703
118	0x3b663a3d	0.0035129928
119	0x3abd7300	0.0014453828
120	0x3b138e66	0.0022515296
121	0xbd368368	-0.044558913
122	0x3d0f355a	0.03496299
123	0x3d02a286	0.031893276
124	0xbdf95698	-0.121747196
125	0xbd5aa9bc	-0.053384528
126	0xbcdc39fb	-0.026883116
127	0xbbaa89f2	-0.0052044326
128	0xbd7eb6fd	-0.06218623
129	0x3dd17dcd	0.10229073
130	0x3dcf9ef8	0.10137743
131	0x3d8d02f7	0.06885331
132	0xbe8bce89	-0.2730601
133	0x3d97b215	0.07407013
134	0x3e31d275	0.17365439
135	0x3d1f630a	0.03891281
136	0x3d1e2c18	0.03861627
137	0xbe8cf413	-0.27529964
138	0xbdd1811a	-0.10229702
139	0x3e0ec305	0.13941582
140	0xbe6d4659	-0.23171367
141	0xbd3535db	-0.044240814
142	0x3e35c405	0.17750557
143	0x3e0abbc2	0.13548186
144	0x3b81ab55	0.003957192
145	0xbdf9bb15	-0.12193886
146	0xbc0dd178	-0.008655898
147	0x3da60dd5	0.08108107
148	0xbd9910a7	-0.07473879
149	0x3e311119	0.17291678
150	0xbe3ed357	-0.18635307
151	0x3e0a2487	0.13490497
152	0xbd228d7c	-0.03968571
153	0x3cc2bb32	0.023770902
154	0x3e1aacc2	0.15104964
155	0xbd0bd6e5	-0.034140486
156	0x3d5cafc9	0.05387858
157	0x3dbf8f93	0.093535565
158	0xbc21ec32	-0.0098829735
159	0x3e4d61c4	0.20056826
160	0xbd99f307	-0.07517057
161	0xbe17f8b2	-0.14840963
162	0xbe5a6832	-0.2132881
163	0xbd6a4a56	-0.0571998
164	0xbdc69c7e	-0.09697817
165	0xbe21db4d	-0.15806313
166	0xbe0dbdef	-0.13841985
167	0xbd3a2292	-0.045443125
168	0x3dcf5919	0.10124416
169	0xbc93faa3	-0.018063849
170	0x3ef28051	0.47363523
171	0x3dd5ca1e	0.104389414
172	0x3dcf9c46	0.10137229
173	0x3eb36045	0.35034385
174	0xbdfcf34c	-0.12351093
175	0x3e5e621a	0.2171711
176	0x3e414f1d	0.18877836
177	0x3ef3226f	0.47487208
178	0xbe8505b4	-0.25980914
179	0x3d299772	0.041404195
180	0xbef4dde4	-0.4782554
181	0x3cf35671	0.029704304
182	0x3e809ae4	0.25118172
183	0x3dd8811f	0.10571503
184	0xbdae656a	-0.08515437
185	0x3df46cdb	0.11934825
186	0x3dac2526	0.08405523
187	0x3d95ea8b	0.07320126
188	0x3e6f09e6	0.2334362
189	0xbe03a99c	-0.1285767
190	0x3d69c852	0.057075806
191	0x3e0e0c97	0.1387199
192	0x3f017b64	0.50578904
193	0x3d0d0dac	0.034436867
194	0xbd882a0b	-0.06648644
195	0xbce0302a	-0.027366716
196	0x3d4c1ad7	0.049830284
197	0x3d5f3eb9	0.054503176
198	0x3dee1251	0.11624587
199	0xbde29847	-0.11064201
200	0x3e136ce8	0.14397013
201	0x3d9ce963	0.076617025
202	0xbd2c8f72	-0.042128988
203	0x3deac7d0	0.114638925
204	0x3e68e6a3	0.22744231
205	0xbb9db00e	-0.004812247
206	0xbb91623d	-0.0044367597
207	0xbd86a406	-0.06574254
208	0x3e4ad4dd	0.19807763
209	0xbd7cb353	-0.061694454
210	0xbe7dd414	-0.24787933
211	0xbd2470b1	-0.040146533
212	0xbe409e0f	-0.18810295
213	0x3dc8bbd6	0.09801452
214	0xbddb14d7	-0.10697334
215	0xbd58d05a	-0.052933075
216	0x3defa454	0.11701265
217	0x3dffc6f2	0.12489118
218	0x3dfe3965	0.12413291
219	0xbde7325a	-0.11288901
220	0xbe51b93f	-0.20480822
221	0x3d4f544b	0.050617497
222	0xbb5c335a	-0.0033599944
223	0x3d93ddc2	0.07220031
224	0x3c97e607	0.018542303
225	0x3c75756b	0.014981608
226	0xbe89a463	-0.2688323
227	0x3d27b0f3	0.040940236
228	0x3ee41d6d	0.445537
229	0x3e0230ee	0.12713978
230	0x3db4eb7a	0.08833976
231	0x3de9ffa6	0.11425714
232	0x3e06f24b	0.13178365
233	0xbc4e5694	-0.012593884
234	0xbeb743bc	-0.35793865
235	0xbe1463a6	-0.14491138
236	0x3d2182d0	0.039431393
237	0xbe5e192b	-0.21689288
238	0xbeedfda5	-0.46482578
239	0xbd8661e5	-0.06561641
240	0xbd2e14dd	-0.042500366
241	0xbc868e09	-0.01642515
242	0x3ed0f57c	0.4081229
243	0x3d0b5f36	0.034026347
244	0xbc2608f0	-0.010133967
245	0x3db4b787	0.088240676
246	0xbb989be5	-0.004657256
247	0x3cf06645	0.02934564
248	0x3dd68828	0.104751885
249	0xbdecb047	-0.1155706
250	0x3e438345	0.19093044
251	0x3de40a2e	0.11134754
252	0xbdcbd914	-0.09953514
253	0x3d442534	0.047887042
254	0xbcdbaeee	-0.026816811
255	0x3df38480	0.11890507

fc2.bias f4 [64]
0	0xbdb36a21	-0.08760477
1	0xbe30c2cd	-0.1726181
2	0x3da9d9ca	0.08293493
3	0x3c8a1e35	0.016860107
4	0x3e11e19e	0.14246222
5	0x3d68fb88	0.056880504
6	0x3e17a3ca	0.14808574
7	0xbd861b01	-0.06548119
8	0x3c988fc8	0.018623248
9	0x3e13621c	0.14392895
10	0x3d813a34	0.063099295
11	0xbdab4b12	-0.08363928
12	0xbd22a84b	-0.039711278
13	0x3e4ed978	0.20200145
14	0x3a4403ea	0.000747739
15	0x3e300da8	0.1719271
16	0x3dd5356b	0.10410579
17	0x3de1f1a7	0.1103242
18	0xbcd8da39	-0.026471244
19	0x3e35f8c5	0.1777068
20	0x3e534206	0.20630655
21	0x3e7087a5	0.23489244
22	0x3d11eff6	0.035629235
23	0x3dae834d	0.085211374
24	0x3d443ea0	0.047911286
25	0x3e267b76	0.16258034
26	0x3dcebe5b	0.10094901
27	0x3d54284d	0.051796246
28	0x3e4d1793	0.20028524
29	0x3e06e803	0.13174443
30	0x3d8f397c	0.06993386
31	0x3e3ba44e	0.18324396
32	0xbd93a69f	-0.07209515
33	0x3d02cbfb	0.031932812
34	0x3cd37fbc	0.025817744
35	0x3c88f467	0.016718103
36	0x3c79b1f5	0.015240182
37	0x3dc6d96a	0.09709437
38	0x3dbbf681	0.09177876
39	0xbdd954b5	-0.1061186
40	0x3d0a141a	0.033710577
41	0x3d8ad1be	0.067782864
42	0x3d2ab3b0	0.04167527
43	0x3e463af0	0.1935842
44	0x3dc309dd	0.09523366
45	0x3a545149	0.00080992706
46	0xbc36bf13	-0.011153954
47	0x3e0c48ac	0.13699597
48	0x3b2df82c	0.0026545627
49	0x3ac4cc27	0.0015014455
50	0x3d91a9dd	0.07112477
51	0x3d4ec931	0.05048484
52	0x3db6e69f	0.08930706
53	0x3e8edb94	0.279019
54	0x3dfb2432	0.12262763
55	0x3e7dfeb4	0.24804193
56	0xbdd06547	-0.10175567
57	0x3e488f2c	0.19585866
58	0x3de6b3aa	0.11264737
59	0xbb4b1986	-0.0030990555
60	0x3d25e5c3	0.04050232
61	0xbc9057bb	-0.017619958
62	0x3c03c8fa	0.008043522
63	0x3dea3563	0.11435964

fc3.weight f4 [10, 64]
0	0x3dacc845	0.08436636
1	0x3e21c5db	0.15798132
2	0x3cfb0d67	0.03064604
3	0x3d7bd76e	0.061484747
4	0x3e342adf	0.17594479
5	0xbda3ad59	-0.07992048
6	0xbe99e471	-0.300571
7	0xbe185b87	-0.14878665
8	0x3e00d25c	0.12580246
9	0xbe8dd0b7	-0.276983
10	0xbe647d27	-0.22313367
11	0x3e5f71d2	0.21820763
12	0x3e60b23f	0.21942995
13	0xbe97fa4c	-0.2968315
14	0x3d48143d	0.048847426
15	0x3d1eb68f	0.03874832
16	0x3e47ecf9	0.19523992
17	0x3eff4d23	0.49863538
18	0x3e4b6e73	0.19866352
19	0xbf2d7a46	-0.677647
20	0xbe9beef0	-0.30455732
21	0xbe7fe56a	-0.24989858
22	0xbdb981a5	-0.09057931
23	0x3e1d3c4e	0.15355036
24	0x3d9f2066	0.077698514
25	0x3e3c5977	0.18393503
26	0x3e2df22f	0.16986917
27	0x3e6638de	0.2248263
28	0xbe24833d	-0.16065688
29	0xbe997e23	-0.29979047
30	0xbd3e8e4b	-0.04652242
31	0xbd7754ac	-0.060383484
32	0x3e27700b	0.16351335
33	0x3e23c631	0.15993573
34	0xbec8cac1	-0.3921719
35	0x3e458e98	0.19292676
36	0xbf41cd22	-0.7570363
37	0xbeb1224a	-0.34596473
38	0x3e353f33	0.1769989
39	0xbe4cac0b	-0.19987504
40	0xbead753b	-0.33878502
41	0xbdab461c	-0.08362982
42	0xbc004bd3	-0.007830578
43	0xbdf961ac	-0.121768326
44	0x3e55f486	0.2089406
45	0xbea0c389	-0.3139918
46	0xbe9473e8	-0.2899468
47	0x3ddf2411	0.10895551
48	0x3e5790be	0.21051309
49	0xbe51a449	-0.20472826
50	0xbe268e56	-0.16265234
51	0x3e0f2e53	0.13982515
52	0x3e93c328	0.2885983
53	0xbf0be033	-0.54638976
54	0x3e90d155	0.28284708
55	0xbe1ace20	-0.15117693
56	0xbefe5553	-0.49674472
57	0xbd2b3665	-0.04179992
58	0xbb72d107	-0.003705086
59	0xbea2121e	-0.31654447
60	0xbeac65f9	-0.3367155
61	0xbdb52ede	-0.0884683
62	0x3e3ae26f	0.1825044
63	0xbe7f052b	-0.24904315
64	0xbc1e9e87	-0.009681351
65	0xbe0f0919	-0.13968314
66	0xbeabf637	-0.33586285
67	0xbefb0643	-0.49028215
68	0x3da6e5dc	0.08149311
69	0xbca36e92	-0.019950185
70	0xbe49783e	-0.19674775
71	0x3e5a792a	0.21335283
72	0xbd8894fe	-0.06669043
73	0xbf0e383b	-0.5555455
74	0xbe98f713	-0.29876003
75	0xbeeeea78	-0.4666326
76	0xbe30256b	-0.17201774
77	0x3e42ea46	0.1903468
78	0x3e11a154	0.14221698
79	0xbed254f7	-0.41080448
80	0xbd7b2dd5	-0.061323006
81	0x3f0a99e7	0.54141086
82	0x3e7b52ed	0.24543352
83	0x3e30f512	0.17280987
84	0xbd2cd254	-0.042192772
85	0xbe292f0f	-0.16521858
86	0x3c358b81	0.011080624
87	0xbe887adf	-0.26656243
88	0xbdb7ca65	-0.089741506
89	0xbeb61ea2	-0.35570246
90	0xbe432aba	-0.19059268
91	0x3cc8037b	0.024415722
92	0xbe25e7e1	-0.16201736
93	0xbd063396	-0.03276404
94	0x3dc09576	0.094035074
95	0x3e199700	0.14999008
96	0xbf08e11a	-0.5346848
97	0xbec149d5	-0.37751642
98	0x3e67b11d	0.22626157
99	0xbed72b5b	-0.42025265
100	0x3e4eac7d	0.20182987
101	0x3c5f5804	0.013631824
102	0xbe041eda	-0.12902394
103	0x3ddb4a35	0.10707513
104	0x3e1b55bb	0.15169422
105	0xbecdcfbd	-0.40197554
106	0xbdf29971	-0.11845673
107	0xbf14e56a	-0.5816256
108	0xbbda6aa3	-0.006665544
109	0x3eef19fd	0.46699515
110	0x3e431e10	0.19054437
111	0xbed9af6a	-0.42516643
112	0x3d8e9a9c	0.06963083
113	0x3e792e28	0.24334013
114	0x3e03d496	0.12874064
115	0x3e749a0b	0.23886888
116	0x3d036d74	0.032086805
117	0x3e1edaad	0.15513106
118	0xbe1c9a63	-0.15293269
119	0xbe31b7dc	-0.17355293
120	0x3e3ce957	0.18448387
121	0x3e9e163b	0.30876336
122	0xbeaa3e5e	-0.33250707
123	0xbe71e8ce	-0.23623964
124	0x3d0149e3	0.031564604
125	0x3ab95e95	0.0014142568
126	0x3de414d8	0.11136788
127	0x3d539107	0.05165198
128	0xbdd53b30	-0.1041168
129	0xbcc42dcc	-0.023947619
130	0xbd3a5379	-0.045489762
131	0xbcc87a71	-0.024472447
132	0xbf06f2f6	-0.5271448
133	0x3e925e51	0.28587583
134	0xbef5dbf3	-0.4801937
135	0x3db49067	0.08816605
136	0xbd2f1a0d	-0.042749453
137	0xbdfd3cec	-0.123651356
138	0x3e5efe52	0.21776703
139	0xbe574ace	-0.2102463
140	0xbcb8a570	-0.022539824
141	0xbe776749	-0.24160494
142	0x3e881ce6	0.26584548
143	0xbe185e8d	-0.14879818
144	0x3e8f3ba5	0.27975193
145	0xbc8f8ce5	-0.017523238
146	0xbecdb057	-0.401736
147	0xbf1f7e0e	-0.6230172
148	0xbe36d24f	-0.17853664
149	0xbed111f9	-0.40834025
150	0x3e874add	0.26424304
151	0x3e162386	0.14661989
152	0xbc892772	-0.016742442
153	0xbdb788ae	-0.089616165
154	0x3e61107b	0.21978943
155	0x3e7a0d6d	0.24419184
156	0x3db4b39f	0.088233225
157	0xbe9f80ba	-0.31152898
158	0xbd1bc5ea	-0.038030542
159	0xbd543711	-0.051810328
160	0x3d886428	0.06659728
161	0x3c579039	0.013156944
162	0x3e6dfe22	0.23241475
163	0x3e0145ef	0.12624334
164	0x3e18ed60	0.14934301
165	0xbe23f92c	-0.1601302
166	0xbd76acb5	-0.0602233
167	0x3e6185ae	0.22023651
168	0x3e872c0b	0.2640079
169	0xbdac9e81	-0.0842867
170	0xbda1c462	-0.07898785
171	0xbe954fee	-0.29162544
172	0xbf062222	-0.5239583
173	0x3e6bb173	0.2301691
174	0xbdf09ca8	-0.1174863
175	0xbed6ab3e	-0.41927522
176	0x3dc27466	0.094948575
177	0xbe57e733	-0.21084289
178	0xbe877a7c	-0.26460636
179	0x3ca49eae	0.020095196
180	0x3ea1e651	0.3162103
181	0x3e98d308	0.29848504
182	0xbe26e9ed	-0.16300173
183	0xbd81f9c3	-0.063464664
184	0x3dc0c260	0.09412074
185	0xbf00876c	-0.5020664
186	0xbdcfe690	-0.10151398
187	0x3db5c2f6	0.088750765
188	0xbf0d5bbe	-0.5521811
189	0xbdf190ef	-0.11795222
190	0x3e6c8405	0.23097236
191	0x3dbd3ea2	0.09240462
192	0xbd7b6429	-0.061374817
193	0x3ea131df	0.3148336
194	0xbea92e61	-0.33043197
195	0x3de4bdde	0.11169027
196	0xbed07f2c	-0.40722024
197	0x3e7495bd	0.23885246
198	0x3e0c30b4	0.13690454
199	0xbe65b8a9	-0.22433724
200	0xbeb8952b	-0.36051306
201	0xbec9c2c1	-0.39406398
202	0x3e20e031	0.15710522
203	0xbab52a91	-0.001382189
204	0x3e119edb	0.14220755
205	0xbe1a4187	-0.15064059
206	0x3e5739ac	0.21018094
207	0x3e161956	0.14658102
208	0xbea9cc65	-0.33163753
209	0xbeccfbff	-0.40036008
210	0xbbd773ba	-0.006575075
211	0x3dc4e3d5	0.09613768
212	0x3e6b2468	0.22963107
213	0xbee86ffb	-0.45397934
214	0x3e7adfd7	0.2449945
215	0x3de53538	0.11191791
216	0xbd7892cd	-0.060686875
217	0xbd2a1509	-0.041523967
218	0xbe7ba4a8	-0.2457453
219	0x3cdf7213	0.027276075
220	0xbd2a1cdc	-0.04153143
221	0x3c339c9e	0.010962633
222	0xbd99b8c2	-0.07505943
223	0xbf12b2ee	-0.57304275
224	0x3e3e619d	0.18591924
225	0xbe4b4857	-0.19851814
226	0x3e5d67b2	0.21621588
227	0xbd1784c4	-0.03699185
228	0xbe887212	-0.2664953
229	0x3e37b3ef	0.17939733
230	0xbe551c76	-0.20811638
231	0x3e28527d	0.16437717
232	0xbbf07d48	-0.0073391534
233	0xbe7df7b6	-0.24801525
234	0x3c749925	0.014929091
235	0xbe8485d5	-0.25883356
236	0x3e298ca1	0.16557552
237	0xbf2fb26e	-0.6863164
238	0x3e4d136c	0.2002694
239	0xbe2ebaa6	-0.17063388
240	0xbc85b031	-0.016319366
241	0x3e5721a7	0.21008931
242	0x3e823bd3	0.25436267
243	0xbf25152a	-0.6448542
244	0xbeb606e0	-0.3555212
245	0xbeac90ca	-0.33704215
246	0xbed31a8e	-0.41231197
247	0xbe7382d1	-0.23780371
248	0xbc67d88b	-0.014150749
249	0xbf14467e	-0.5792006
250	0x3c2b1c86	0.010443812
251	0x3e42983f	0.1900339
252	0x3e901cdf	0.28147027
253	0x3d13a254	0.03604348
254	0x3dd7321d	0.10507605
255	0x3e53e4ef	0.206928

fc3.bias f4 [10]
0	0xbe564114	-0.20923263
1	0xbdb26fe0	-0.08712745
2	0xbd8add24	-0.067804605
3	0x3d1098b6	0.035301886
4	0x3db45f3d	0.08807228
5	0x3e291f29	0.16515793
6	0x3c0a4971	0.008440361
7	0xbe088581	-0.13332178
8	0x3dc93e0d	0.09826288
9	0xbd24fa8b	-0.040278
