OtherModels/numberModel(2).pth (torch, 440581 bytes, 6 tensors)

fc1.weight f4 [128, 784]
0	0x398d9f80	0.00027012452
1	0x3bc5ed40	0.0060402453
2	0x3c454790	0.012040988
3	0xbce23cdc	-0.02761691
4	0x3ce85bc6	0.028364073
5	0x3ce24752	0.027621899
6	0xbb182ba0	-0.0023219362
7	0x3d09f629	0.033682022
8	0xbca34e5c	-0.019934826
9	0x3d043ab9	0.032282565
10	0xbc69f75c	-0.0142801665
11	0x3ba1b568	0.0049349554
12	0x3c5e6e6a	0.013576129
13	0xbc563182	-0.013073327
14	0xbcfaff76	-0.030639391
15	0xbbb2ed85	-0.0054604434
16	0xbc9721fa	-0.018448818
17	0x3ac2b720	0.0014855601
18	0x3cbebb06	0.02328254
19	0xbcf46538	-0.029833421
20	0x3c4ab5e8	0.012372471
21	0xbd0fbdd7	-0.035093155
22	0x3ce14a52	0.027501259
23	0x3be4a810	0.0069780424
24	0xbc738b86	-0.014864808
25	0xbd0e38dd	-0.034722198
26	0xbd097e6d	-0.033567835
27	0xbc7181c6	-0.014740413
28	0xbcc50a6a	-0.024052817
29	0xbcf62038	-0.03004466
30	0xbca3d15a	-0.019997288
31	0xbd0cac92	-0.034344263
32	0xbd0a13ff	-0.033710476
33	0xbd21de4e	-0.039518647
34	0xbdcb2041	-0.09918261
35	0xbd664669	-0.056219492
36	0xbd5fbf00	-0.05462551
37	0xbdbd2c70	-0.092369914
38	0xbd6def72	-0.05808968
39	0xbcce4737	-0.025180442
40	0xbe1688a3	-0.1470056
41	0xbe4176d4	-0.18892986
42	0xbe4f813c	-0.20264143
43	0xbe9fda8e	-0.31221431
44	0xbec56cfc	-0.3855971
45	0xbeac3d4d	-0.3364052
46	0xbd9f03c4	-0.0776439
47	0xbe069ca0	-0.13145685
48	0xbe0c1cdd	-0.13682885
49	0xbd7745c3	-0.060369264
50	0xbda5cf65	-0.08096198
51	0xbc9a6759	-0.018848108
52	0x3cb1910a	0.021675605
53	0xbbc3f140	-0.005979687
54	0x3cb9d982	0.022686724
55	0x3d0bad99	0.034101103
56	0x3bcbc608	0.0062186755
57	0x3cf82b16	0.030293982
58	0xbcf62c9c	-0.030050568
59	0xbdc99b23	-0.09844043
60	0xbe634a60	-0.2219634
61	0xbcc47ebf	-0.023986218
62	0xbd19da44	-0.03756167
63	0xbdf6105a	-0.120148376
64	0xbd607ae8	-0.054804713
65	0xbe88aaad	-0.26692715
66	0xbe30f508	-0.17280972
67	0xbea7fd0d	-0.3281025
68	0xbee04820	-0.43805027
69	0xbee2cc6b	-0.44296584
70	0xbeea222a	-0.4572919
71	0xbf101123	-0.5627615
72	0xbd30ff33	-0.043212127
73	0x3a6c0146	0.00090028753
74	0xbe8629a1	-0.26203635
75	0xbf0d25d0	-0.5513582
76	0xbf16bc36	-0.5888094
77	0xbe8327cc	-0.256163
78	0xbd0e7a9c	-0.0347849
79	0xbd8a29e0	-0.06746268
80	0xbd75fd12	-0.0600558
81	0xbd1c336a	-0.03813497
82	0x3cf3105e	0.02967089
83	0x3cd4847a	0.025942076
84	0xbbfbe85c	-0.0076876115
85	0xbcf35968	-0.029705718
86	0xbcd66c52	-0.026174698
87	0xbd82935d	-0.063757636
88	0xbcdef562	-0.027216617
89	0x3d7259be	0.059167616
90	0xbde537d7	-0.11192291
91	0xbc01ccc9	-0.00792236
92	0xbe2f010d	-0.17090245
93	0xbe4dc2b9	-0.20093812
94	0xbdcf412b	-0.10119852
95	0xbf00ab17	-0.5026106
96	0xbec57b4e	-0.38570637
97	0xbf089557	-0.53352875
98	0xbe98a53e	-0.2981357
99	0x3cb08723	0.021548813
100	0x3cd26213	0.025681531
101	0x3e5a3c30	0.21312022
102	0x3e4bcf78	0.19903362
103	0xbe08cfd8	-0.13360536
104	0x3cd276ca	0.025691409
105	0x3dfb1350	0.12259543
106	0xbb16ee45	-0.0023030203
107	0xbde203e2	-0.11035897
108	0xbd972a65	-0.07381133
109	0xbed1d1a9	-0.4098027
110	0xbda42083	-0.080140136
111	0xbcc1ea1a	-0.023671199
112	0xbcea2e1a	-0.028586436
113	0x3d5ecfc3	0.054397356
114	0x3db98d9e	0.090602145
115	0x3e1cb5c3	0.15303712
116	0xbe043a4d	-0.12912865
117	0x3ee58876	0.44830674
118	0x3db4bc98	0.08825034
119	0xbd2598f7	-0.04042908
120	0xbd853cdb	-0.06505748
121	0xbd07acfa	-0.033123948
122	0xbdebef06	-0.115201995
123	0xbeadd89b	-0.3395432
124	0xbd95ad64	-0.07308462
125	0xbcbfdf95	-0.023422042
126	0x3d8a84db	0.067636214
127	0xbd1cb208	-0.03825572
128	0x3d8bb0c2	0.06820823
129	0xbca2e311	-0.019883664
130	0xbe5a4324	-0.21314675
131	0xbe67a3c2	-0.22621062
132	0xbd938cb9	-0.07204575
133	0x3e623f4b	0.22094457
134	0x3e81c3ae	0.25344604
135	0x3d9adaca	0.07561262
136	0x3e327fb2	0.17431524
137	0x3e8785e3	0.26469335
138	0x3d06d490	0.03291756
139	0xbbd38b70	-0.006455831
140	0xbab5a660	-0.0013858788
141	0xbcc180ce	-0.02362099
142	0xbd93040d	-0.07178507
143	0x3e5f4439	0.21803369
144	0xbdbe9014	-0.093048245
145	0x3ddce8cc	0.1078659
146	0x3c101317	0.008793614
147	0x3e087b5b	0.13328306
148	0x3e4599d2	0.19296959
149	0x3ea2d08a	0.31799728
150	0x3dfbf80a	0.12303169
151	0x3e14d3ca	0.14533916
152	0x3d5d8381	0.05408049
153	0xbde2b295	-0.11069218
154	0x3db30dbb	0.08742853
155	0xbd44f8ae	-0.048088722
156	0x3c12f15d	0.008968678
157	0x3de23c5a	0.110466674
158	0x3e3ca77f	0.1842327
159	0x3cb9a423	0.022661274
160	0xbcf12c95	-0.029440204
161	0x3cfae8e9	0.030628638
162	0x3e37e0dc	0.17956871
163	0x3ea4f8a7	0.32220957
164	0x3eb4aac8	0.35286546
165	0x3ea1328e	0.31483883
166	0xbc092304	-0.008370165
167	0xbac6acb8	-0.0015157675
168	0x3c866fea	0.016410787
169	0x3d09a0e9	0.03360072
170	0x3e5e2ed4	0.21697551
171	0x3e170e04	0.1475144
172	0x3e2bf77b	0.16793625
173	0x3ea50bd7	0.32235596
174	0x3e9cd136	0.30628365
175	0x3dd1c66a	0.102429226
176	0x3eb9e0c8	0.36304307
177	0x3e76e8b7	0.24112211
178	0xbda64b91	-0.08119882
179	0xbe7b2bb8	-0.24528396
180	0x3cbf2f29	0.023337917
181	0xbe3b0e4b	-0.18267171
182	0x3c926e6c	0.017874919
183	0x3dc61ecb	0.09673842
184	0x3cd4bd55	0.025969187
185	0xba4c5ffe	-0.00077962864
186	0x3c28e708	0.010308988
187	0x3dc1b125	0.09457616
188	0x3d4dc610	0.050237715
189	0xbe379770	-0.17928863
190	0xbe203c6f	-0.15648054
191	0x3df2d9c2	0.1185794
192	0x3dca403f	0.09875535
193	0x3ea10462	0.31448656
194	0xbd2c9a32	-0.04213924
195	0xbd32202f	-0.043487724
196	0x3c39fa40	0.011351168
197	0x3de29bbb	0.110648595
198	0x3dfb7a92	0.12279238
199	0x3d547f1f	0.051879045
200	0x3ddd2cf0	0.10799587
201	0x3e474e27	0.19463407
202	0x3e563c88	0.20921528
203	0x3e63fed1	0.22265173
204	0xbb6136ef	-0.0034365018
205	0x3b54aa41	0.0032450112
206	0xbdd32736	-0.10310213
207	0xbe4746dc	-0.19460624
208	0xbe7153a3	-0.23567061
209	0xbe4aeb41	-0.19816305
210	0xbda111be	-0.07864712
211	0xbc81c3e2	-0.015840475
212	0x3d0fcefa	0.035109498
213	0x3d8855b5	0.06656972
214	0xbe2a2baa	-0.16618219
215	0xbd3b25de	-0.04569041
216	0x3cbd0dc0	0.023077846
217	0xbe994f49	-0.29943302
218	0xbdf640cf	-0.1202408
219	0x3d5336f4	0.05156608
220	0x3e77923a	0.24176875
221	0x3d2764d4	0.04086764
222	0x3eb0657f	0.34452435
223	0xbd948873	-0.07252588
224	0x3cd549ca	0.026036162
225	0xbc0fbabb	-0.008772547
226	0x3e9916c0	0.2990017
227	0x3e167422	0.14692739
228	0x3becbd65	0.007224726
229	0x3e54fe9f	0.20800255
230	0x3e599d4f	0.21251415
231	0x3ea5f92a	0.3241666
232	0x3d924cae	0.07143532
233	0x3dbe26e2	0.0928476
234	0x3c708a4f	0.014681413
235	0xbd99e21b	-0.07513829
236	0xbe0e1d97	-0.13878475
237	0xbda96932	-0.082720175
238	0xbe29fcdc	-0.16600364
239	0x3c9b210c	0.018936656
240	0x3dfaa1cd	0.12237892
241	0xbe34d289	-0.17658438
242	0xbe80c92e	-0.25153488
243	0xbe15e8a0	-0.1463952
244	0xbd0271a6	-0.031846665
245	0xbe1d4581	-0.15358545
246	0xbe0cee9a	-0.13762894
247	0xbb9bc4eb	-0.004753699
248	0xbdc3cb2e	-0.09560238
249	0x3dd014e5	0.10160235
250	0x3f11e8fb	0.56996125
251	0x3e654c2a	0.22392336
252	0x3cee4d9c	0.029089741
253	0x3e72edf9	0.23723592
254	0x3dfb56fb	0.122724496
255	0x3e4d9498	0.20076215

fc1.bias f4 [128]
0	0x3dd70a1b	0.10499974
1	0xbdfbe86c	-0.1230019
2	0x3b8b6f4b	0.0042552105
3	0x3e4fe417	0.20301853
4	0x3dcc8bc2	0.09987594
5	0x3d7625d1	0.06009466
6	0xbe6b3f3b	-0.2297334
7	0xbcb81811	-0.022472413
8	0xbcc0cff1	-0.023536654
9	0x3da16e6d	0.0788239
10	0x3d2ece41	0.042677168
11	0x3e1030df	0.14081143
12	0xbdd831d4	-0.10556379
13	0x3dff9f3b	0.12481543
14	0xbcb3d83e	-0.021953698
15	0xbdf94847	-0.12171989
16	0x3b47a111	0.0030460993
17	0xbddd2dd4	-0.10799757
18	0x3c62cafd	0.0138423415
19	0x3c44c05e	0.012008755
20	0x3d26cb99	0.04072151
21	0xbe21d2e5	-0.15803106
22	0x3d994158	0.074831665
23	0x3d8423c5	0.06452135
24	0x3dd85e35	0.105648436
25	0x3d95a433	0.07306709
26	0xbe52a294	-0.20569831
27	0xbcfcdf7c	-0.030868284
28	0xbe16b75c	-0.14718384
29	0xbe82ffa0	-0.2558565
30	0xbba85980	-0.0051376224
31	0x3d92796d	0.071520664
32	0xbdcd060f	-0.10010921
33	0xbcc1e7e7	-0.02367015
34	0x3cb3e404	0.021959312
35	0xbdaf52c0	-0.08560705
36	0x3e3322b7	0.17493711
37	0xbe220077	-0.1582049
38	0x3dc10292	0.094243184
39	0x3dfe14d8	0.124063194
40	0xbe1d0afb	-0.1533622
41	0x3d77861d	0.060430635
42	0xbd83b56b	-0.06431087
43	0xbe88c834	-0.26715243
44	0xbcc77d59	-0.024351763
45	0x3da47c17	0.08031481
46	0xbc927174	-0.017876364
47	0x3e8b4b2c	0.2720579
48	0x3e2870e8	0.1644932
49	0x3d7a5bb9	0.06112263
50	0x3d6950f0	0.056961954
51	0x3d8c05a6	0.06837015
52	0xbe185db2	-0.14879492
53	0x3e667fe2	0.22509721
54	0xbe196da2	-0.14983228
55	0xbdc7e721	-0.09760881
56	0x3d21d5ea	0.039510645
57	0xbe14948d	-0.14509793
58	0xbe118d28	-0.14214003
59	0xbe002fdc	-0.12518257
60	0xbded9012	-0.11599745
61	0x3cbc7dcf	0.023009209
62	0x3e489cbb	0.19591038
63	0x3e3e3f36	0.185788
64	0xbc83b959	-0.016079592
65	0x3dcb1d07	0.09917646
66	0xbdb5b052	-0.08871521
67	0x3d262c79	0.040569756
68	0xbca10787	-0.01965691
69	0x3d28baf9	0.041193936
70	0xbd0481c4	-0.032350317
71	0x3e0a97ce	0.13534471
72	0xbc7b81b0	-0.015350744
73	0x3e157f94	0.14599448
74	0x3cd4721a	0.025933314
75	0x3e5756f9	0.21029271
76	0xbd43c7b1	-0.047797862
77	0x3e129781	0.14315607
78	0x3e19db0e	0.15024969
79	0xbdb0cc75	-0.08632747
80	0xbdf0b0f6	-0.117525026
81	0xbd50d8b0	-0.0509879
82	0xbc29e861	-0.010370345
83	0xbd351290	-0.044207156
84	0xbd8f0d43	-0.06984951
85	0x3e4a9078	0.19781673
86	0x3c39ed01	0.01134801
87	0x3c2f7fd8	0.010711633
88	0xbe849dda	-0.2590168
89	0x3d89892b	0.06715616
90	0x3e6a3eb5	0.22875483
91	0x3e564649	0.20925249
92	0x3e3e814a	0.18604007
93	0x3e09ee4d	0.13469811
94	0x3d1758bb	0.036949854
95	0x3e5a7f27	0.21337567
96	0xbc14c7bd	-0.009080824
97	0x3db7ad9e	0.08968662
98	0x3d5920c0	0.05300975
99	0x3e1062f2	0.14100245
100	0xbd37ee3d	-0.044904936
101	0x3c8d7251	0.017266424
102	0x3e436b30	0.19083858
103	0x3e83ecca	0.25766593
104	0x3dd49b1b	0.103811465
105	0xbdbe79a8	-0.09300548
106	0x3d87f12a	0.06637795
107	0x3db7f8f2	0.089830294
108	0x3d8e563b	0.06950041
109	0x3d79e285	0.06100704
110	0x3c5e74bb	0.013577635
111	0x3d279a07	0.040918376
112	0x3e29b53d	0.16573043
113	0x3e3bbf64	0.18334728
114	0x3e3ad248	0.18244278
115	0xbe3954df	-0.18098782
116	0x3ddb8ccb	0.107202135
117	0x3d268045	0.04064967
118	0x3dbee81d	0.09321616
119	0x3df61502	0.12015726
120	0xbd3027f6	-0.04300686
121	0x3db25a4d	0.0870863
122	0x3d0dc618	0.034612745
123	0xbdd838c5	-0.10557703
124	0x3de0eb92	0.109824315
125	0x3d40e2c6	0.047091268
126	0x3cc2344e	0.023706581
127	0x3cc43f8c	0.023956083

fc2.weight f4 [64, 128]
0	0xbd03efac	-0.03221099
1	0x3d99ab74	0.07503405
2	0x3ce3e4e2	0.0278191
3	0x3d50e835	0.0510027
4	0x3e07110d	0.13190098
5	0x3b7caed7	0.003855636
6	0x3ee80e93	0.4532362
7	0x3d53681e	0.051612966
8	0x3e829c15	0.25509706
9	0x3df46039	0.119324155
10	0xbdf2b368	-0.11850625
11	0x3d22ead1	0.03977472
12	0xbd1243af	-0.03570908
13	0x3d3d3288	0.04619077
14	0x3b187133	0.0023260831
15	0xbb84a720	-0.004048243
16	0xbd3b11f7	-0.04567143
17	0xbd222cda	-0.039593555
18	0x3e56a299	0.20960464
19	0x3db3c2de	0.08777402
20	0x3e5d9e17	0.21642338
21	0xbd973a96	-0.07384221
22	0x3e9f9c45	0.31173912
23	0xbdcba4df	-0.09943556
24	0x3d63b215	0.055589754
25	0x3e66765a	0.22506085
26	0x3ea80280	0.32814407
27	0xbe6b71a7	-0.22992574
28	0x3d563d72	0.052304693
29	0x3bee6ba7	0.0072760168
30	0xbde709f4	-0.11281195
31	0xbe8c3203	-0.27381906
32	0x3d88379c	0.06651232
33	0xbea833f1	-0.32852128
34	0x3eaf89c1	0.34284785
35	0x3e0a02b2	0.1347759
36	0xbe19ef91	-0.15032794
37	0x3e98b413	0.29824886
38	0xbe8ba332	-0.27272946
39	0x3e936431	0.28787377
40	0x3c9d693c	0.019215219
41	0x3d421161	0.047379855
42	0x3dbd348e	0.0923854
43	0x3f7534c7	0.95783657
44	0xbdcccefc	-0.10000417
45	0x3d970cae	0.07375465
46	0x3e7bf09f	0.24603508
47	0x3ca56513	0.020189798
48	0xbe67671c	-0.22597927
49	0x3deceffe	0.115692124
50	0x3e2ad0f9	0.16681279
51	0x3d636371	0.055514757
52	0x3eb4f6da	0.35344583
53	0x3e1839df	0.14865826
54	0x3d112341	0.03543401
55	0xbdb3e06e	-0.08783041
56	0x3ddca7c0	0.10774183
57	0x3e87ed57	0.26548263
58	0xbd97e151	-0.074160226
59	0xbd1adda9	-0.037809048
60	0x3e609047	0.21930037
61	0xbe040adc	-0.12894768
62	0xbde7f1d9	-0.11325426
63	0x3ea75b1d	0.326867
64	0x3d707c7a	0.05871246
65	0xbe8d23e2	-0.2756644
66	0x3f22762c	0.63461566
67	0xbe17e6e8	-0.14834177
68	0x3e0d590f	0.13803504
69	0xbe06410d	-0.13110752
70	0x3eb006f7	0.34380314
71	0x3e4cfb3b	0.20017712
72	0x3efe8269	0.4970887
73	0xbec3ced0	-0.38243723
74	0xbcc7d0ab	-0.024391493
75	0xbac04f8d	-0.0014672145
76	0x3f2a1e56	0.6645254
77	0xbd5a86a7	-0.05335107
78	0x3d01ee40	0.031721354
79	0x3ecc05a9	0.39848068
80	0x3e8330de	0.2562322
81	0x3ea419df	0.32050988
82	0xbd1b445d	-0.037906993
83	0xbe23112a	-0.15924516
84	0xbe562176	-0.20911202
85	0xbda9f23b	-0.08298155
86	0x3d0752b7	0.033037867
87	0x3f07e2c2	0.5308038
88	0x3eb915c4	0.36149418
89	0x3e8d115b	0.27552304
90	0xbecbf52d	-0.39835492
91	0xbdc3b783	-0.095564865
92	0x3d26f017	0.04075631
93	0x3d596fe9	0.05308524
94	0xbce3838e	-0.027772691
95	0x3c3e4377	0.011612765
96	0x3e5d33c0	0.21601772
97	0xbeadf2dd	-0.33974352
98	0x3d10088b	0.035164397
99	0xbd81afc4	-0.06332353
100	0x3e52ba81	0.20578958
101	0xbd2d76cb	-0.042349618
102	0x3cdb2e68	0.026755527
103	0xbdcb510a	-0.09927566
104	0x3d9dc61b	0.07703801
105	0xbe030d83	-0.12798123
106	0x3dff412f	0.12463605
107	0x3dbb105c	0.0913398
108	0x3e7662eb	0.24061172
109	0x3dbbdb6c	0.09172711
110	0x3dce902a	0.10086091
111	0x3dcc2977	0.09968846
112	0xbe251586	-0.16121492
113	0x3d1e71b6	0.038682662
114	0xbd403776	-0.04692789
115	0x3d8c8b55	0.06862513
116	0x3e324041	0.17407323
117	0x3e165af1	0.14683129
118	0xbc2d3d2e	-0.010573668
119	0xbe80ffdf	-0.25195214
120	0x3cdb0b22	0.026738707
121	0xbcfe9891	-0.031078609
122	0x3e4816d9	0.19539966
123	0x3e99caed	0.30037633
124	0xbe575759	-0.21029414
125	0x3e965d00	0.29367828
126	0x3e94e66c	0.29082048
127	0x3d8afd41	0.067865856
128	0x3e6bf34f	0.23042034
129	0x3ce41dc9	0.027846234
130	0x3d7776d3	0.060416054
131	0x3e2e98f9	0.17050542
132	0xbf1782ec	-0.59184146
133	0x3e520e90	0.20513368
134	0xbcd11e58	-0.025527164
135	0x3b987f3b	0.004653839
136	0xbc9e2cfe	-0.019308563
137	0x3e11dd85	0.14244659
138	0x3cedd31f	0.029031334
139	0x3dc4f8c9	0.096177645
140	0xbe8e12f9	-0.2774885
141	0x3f44641c	0.76715255
142	0x3cccc059	0.024994062
143	0xbd7e7e56	-0.062132202
144	0x3e22b15d	0.15887971
145	0x3e31fd17	0.17381702
146	0x3e934232	0.2876144
147	0x3e1cb194	0.15302116
148	0x3e20b2dd	0.15693231
149	0xbe196c9b	-0.14982836
150	0x3ddfa730	0.1092056
151	0xbcfe0878	-0.031009898
152	0x3e77dda5	0.24205644
153	0x3e94e655	0.2908198
154	0x3d1ab1d4	0.037767246
155	0x3c8e2f59	0.017356561
156	0xbaf6f8fa	-0.0018842511
157	0x3c60cadc	0.01372024
158	0x3dd6e4c2	0.10492851
159	0x3e8703d4	0.26370108
160	0x3dcaa504	0.098947555
161	0xbdd2829c	-0.10278818
162	0xbdd15347	-0.10220962
163	0x3db3b67b	0.0877504
164	0x3d86f6fb	0.065900765
165	0x3e3513a6	0.17683277
166	0x3e8452d3	0.2584444
167	0x3e855aea	0.26045924
168	0xbe4051f7	-0.18781267
169	0xbce99e0e	-0.02851775
170	0x3e0fd8d7	0.14047562
171	0xbdf373cc	-0.11887321
172	0x3e5605df	0.20900677
173	0x3c49d68b	0.012319217
174	0x3d9a5c6b	0.075371586
175	0x3dc0015a	0.09375258
176	0x3da08a65	0.07838897
177	0xbdcd6e22	-0.10030772
178	0x3d76dcdc	0.06026922
179	0xbdf35888	-0.1188212
180	0xbe074dcb	-0.1321327
181	0xbd6a2b97	-0.057170477
182	0xbe1ea193	-0.15491323
183	0x3d9cb25f	0.07651209
184	0xbd83d032	-0.064361945
185	0xbd524eb6	-0.051344596
186	0x3dff6ff6	0.12472527
187	0x3d82e320	0.06390977
188	0x3f178869	0.5919252
189	0xbe777d69	-0.24168934
190	0xbd77c6dc	-0.06049238
191	0x3dd894e4	0.10575274
192	0xbd064cbd	-0.032788027
193	0x3e192abb	0.14957707
194	0x3e45b6cf	0.19308017
195	0x3cbb5f06	0.02287246
196	0xbd395e94	-0.045256212
197	0x3caf0cc8	0.0213684
198	0xbd9fc153	-0.078005455
199	0x3ea5dbf1	0.32394364
200	0x3e8eb42b	0.27871832
201	0x3e483e92	0.19555119
202	0x3c301973	0.010748255
203	0x3ec1fc46	0.37887782
204	0xbda7131f	-0.08157944
205	0x3d953e3f	0.07287263
206	0xbef2a0fc	-0.47388446
207	0xbe9ea0ae	-0.30981964
208	0xbcfa47a3	-0.030551737
209	0x3e19efa8	0.15032828
210	0x3d554e25	0.052076478
211	0xbe601e0b	-0.2188646
212	0x3c8c2680	0.017108202
213	0x3d245f77	0.040130105
214	0xbe2eb084	-0.17059523
215	0x3e2034e8	0.15645182
216	0xbeb72239	-0.35768297
217	0x3dfe90b6	0.12429945
218	0x3dc6e2ba	0.097112134
219	0x3da9b46c	0.08286366
220	0xbc83272f	-0.016009895
221	0x3d360a7e	0.0444436
222	0xbcafc2b4	-0.021455146
223	0x3e15b94f	0.14621471
224	0xbde3456d	-0.11097226
225	0xbb744648	-0.0037273336
226	0x3e3f2297	0.18665539
227	0x3ce1ab43	0.027547484
228	0x3d17100c	0.036880538
229	0x3d35f452	0.044422455
230	0x3e937672	0.28801304
231	0x3e146358	0.14491022
232	0x3e902d09	0.2815936
233	0xbe0693a6	-0.13142261
234	0x3e33b9dd	0.1755137
235	0x3e07977a	0.13241377
236	0xbe3325df	-0.17494915
237	0x3e0e9757	0.13924919
238	0x3dc64c31	0.09682501
239	0x3e5a117b	0.21295731
240	0x3ee11de7	0.43968126
241	0xbd38f9c9	-0.04516009
242	0x3c70dc83	0.014701012
243	0x3c464846	0.012102192
244	0x3d8ba127	0.06817847
245	0x3e15c15c	0.14624542
246	0x3dc52643	0.096264385
247	0x3e124769	0.14285053
248	0x3d076b51	0.03306133
249	0x3ec78f04	0.389763
250	0xbe439a4b	-0.19101827
251	0xbe3714e2	-0.1787906
252	0x3df677cc	0.12034568
253	0x3ed13e77	0.4086797
254	0xbe8ef1ec	-0.27918947
255	0x3d01b7f4	0.031669572

fc2.bias f4 [64]
0	0xbdc4a320	-0.09601426
1	0x3e6bc2fa	0.23023596
2	0x3dea5058	0.114411056
3	0x3d858770	0.06519973
4	0x3c996589	0.018725174
5	0x3e198041	0.14990331
6	0x3de4f31e	0.111791834
7	0xbd9bfe7a	-0.07616897
8	0xbc8ff79e	-0.017574128
9	0x3df6fd8d	0.1206008
10	0x3d82eb8c	0.06392583
11	0x3dba2a94	0.090901524
12	0x3e988da4	0.29795563
13	0x3dc27dd5	0.09496657
14	0x3e6a3116	0.22870287
15	0x3db29673	0.08720102
16	0xbd9d7aa3	-0.07689407
17	0x3e1e43fa	0.15455619
18	0xbe56f766	-0.20992813
19	0x3e6e9144	0.23297602
20	0x3cd220d7	0.025650425
21	0xbc75e843	-0.015008989
22	0x3e927873	0.2860752
23	0xbb990f1a	-0.0046709897
24	0xbe44860b	-0.19191758
25	0x3df28da8	0.11843425
26	0x3e0240a8	0.12719977
27	0xbd27937a	-0.04091213
28	0x3dfa5845	0.12223867
29	0x3dfd78ff	0.12376594
30	0x3df99e7c	0.121884316
31	0x3dbcacc0	0.09212637
32	0x3ea94ba5	0.33065525
33	0xbcd89b71	-0.026441308
34	0xbcc64134	-0.024201013
35	0xbe1ce372	-0.15321139
36	0x3d9a63c1	0.07538558
37	0x3e12c7bc	0.14334005
38	0xbc865aa9	-0.016400652
39	0xbd8058b7	-0.06266921
40	0x3e87e07e	0.2653846
41	0xbd8dc62b	-0.06922563
42	0xbd6a9bd2	-0.057277508
43	0x3e9f2638	0.31083846
44	0x3d9c2bd0	0.07625544
45	0x3e8f6b27	0.28011438
46	0x3ca61d7a	0.020277727
47	0xbcf49f78	-0.029861197
48	0xbd02287a	-0.031776883
49	0x3d68300f	0.056686457
50	0xbbc1cf05	-0.005914571
51	0x3e4e2790	0.2013228
52	0xbe23f16b	-0.16010062
53	0xbcaa1340	-0.020761132
54	0x3cf8c459	0.030367063
55	0xbdd956e2	-0.10612275
56	0x3d6385bc	0.05554746
57	0xbe847bd8	-0.25875735
58	0x3d254075	0.040344674
59	0x3e0d00ca	0.13769832
60	0x3e2788a2	0.16360715
61	0x3eb00b39	0.34383562
62	0xbe01f38d	-0.12690563
63	0x3e5f5fe9	0.2181393

fc3.weight f4 [10, 64]
0	0xbeb9b659	-0.36271933
1	0xbec1e8b1	-0.37872842
2	0xbec5bff8	-0.38623023
3	0xbe21cbc6	-0.1580039
4	0x3d7876a7	0.06066003
5	0x3e47d486	0.19514665
6	0x3e27f4b9	0.16401948
7	0x3db8d20a	0.09024437
8	0x3c6ebba8	0.014571108
9	0x3c303fc0	0.010757387
10	0x3dd2b675	0.10288707
11	0xbda63279	-0.08115096
12	0xbc7c7a63	-0.015410039
13	0xbeb4e9e9	-0.3533471
14	0x3e40db40	0.18833637
15	0xbf110151	-0.56642634
16	0xbe7b43de	-0.24537608
17	0x3e7a7f71	0.24462678
18	0xbd4d5bb1	-0.050136272
19	0x3e405192	0.18781117
20	0x369b6740	4.63138e-06
21	0x3ee57b70	0.44820738
22	0xbf1f8640	-0.62314224
23	0x3e6fa840	0.23404026
24	0xbcf1dd13	-0.029524362
25	0x3e1620c8	0.14660943
26	0x3e9c878e	0.3057217
27	0xbedd38f9	-0.4320753
28	0xbf361c7a	-0.711372
29	0x3d9b6a41	0.07588626
30	0xbebac66e	-0.36479515
31	0x3dcb989d	0.09941218
32	0xbeaebc14	-0.34127867
33	0x3ed6aa78	0.41926932
34	0xbd7ac5f9	-0.061223958
35	0xbe2a47c0	-0.16628933
36	0xbf0073b6	-0.5017656
37	0x3ceaa9b6	0.028645378
38	0xbeeb62aa	-0.45973712
39	0x3dd075df	0.10178732
40	0xbd190cc5	-0.037365694
41	0xbe91c3ae	-0.28469604
42	0xbf2cb05a	-0.6745659
43	0xbda7b73b	-0.08189245
44	0x3e814ab7	0.25252315
45	0xbe941825	-0.2892467
46	0xbf0b2343	-0.5435068
47	0xbe6d2dde	-0.23162028
48	0xbe952f62	-0.29137713
49	0xbc493ede	-0.012283055
50	0xbf48d7da	-0.78454363
51	0x3eafa06c	0.3430208
52	0x3e7be356	0.2459844
53	0x3d1b7d01	0.03796101
54	0x3f3cda86	0.7377094
55	0xbf2b1045	-0.668217
56	0x3e35b9fb	0.17746727
57	0xbf192ca3	-0.59833735
58	0x3e726159	0.23669948
59	0xbe9e9507	-0.30973074
60	0x3dfbec3a	0.12300916
61	0x3cf91f36	0.03041039
62	0x3db07227	0.08615523
63	0xbda9fdf3	-0.0830039
64	0x3e2d8edf	0.16949032
65	0xbe0f3d21	-0.13988163
66	0xbec20558	-0.37894702
67	0x3e59827c	0.21241182
68	0xbf27f6c5	-0.65610915
69	0x3dba8295	0.09106938
70	0xbed78e9e	-0.42100996
71	0x3e59a259	0.21253337
72	0xbf1bc099	-0.60840756
73	0xbf64a892	-0.8931972
74	0xbea8a654	-0.32939398
75	0xbf0bc83d	-0.54602414
76	0xbf172f43	-0.5905649
77	0xbe0a09d7	-0.13480316
78	0x3dba08fd	0.09083746
79	0xbefabb4f	-0.4897103
80	0x3e74ea57	0.23917519
81	0xbecd95f6	-0.40153474
82	0x3e7629cd	0.24039383
83	0xbf0d120e	-0.55105674
84	0xbe919f36	-0.2844178
85	0x3e991892	0.29901558
86	0xbdbceb5b	-0.09224578
87	0xbf5f57a9	-0.87243134
88	0xbd870155	-0.06592051
89	0xbe422ada	-0.18961659
90	0x3d2be40b	0.041965526
91	0x3eb40213	0.35157833
92	0x3e79fbe9	0.24412502
93	0x3d13337c	0.03593777
94	0x3e005aab	0.12534587
95	0x3e3be5c4	0.18349367
96	0xbef01ce4	-0.46897042
97	0x3e8d2202	0.27565008
98	0xbd9b6bfe	-0.07588957
99	0xbe3154de	-0.1731753
100	0x3e08959f	0.13338326
101	0xbf05a3e1	-0.52203184
102	0x3ea53399	0.32265928
103	0xbf21b246	-0.6316265
104	0x3ee7ebd8	0.45297122
105	0x3e718ade	0.2358813
106	0xbd4a7794	-0.049430445
107	0xbeb3ab74	-0.35091746
108	0xbf467391	-0.7752009
109	0x3ed4f1d7	0.4159076
110	0xbbf2bce8	-0.0074077733
111	0x3e2064c6	0.15663442
112	0xbf0e03b6	-0.5547441
113	0xbedf50fe	-0.4361648
114	0x3e9ec806	0.3101198
115	0x3eb4b544	0.35294545
116	0xbe4eb10e	-0.20184729
117	0x3d351542	0.044209726
118	0xbe655d08	-0.2239877
119	0x3e4007d6	0.18752989
120	0xbeade6f4	-0.33965266
121	0xbcc72365	-0.02430887
122	0xbf0c6d46	-0.5485424
123	0x3cc763aa	0.024339516
124	0x3e4ecfaf	0.20196413
125	0x3dc1e6af	0.094678275
126	0xbdb1622b	-0.08661302
127	0xbf100cc2	-0.56269467
128	0x3e8185c0	0.25297356
129	0x3e2a71bc	0.16644949
130	0x3e23c4ad	0.15992995
131	0xbedce071	-0.43139985
132	0x3c856ca4	0.016287155
133	0xbe28b17a	-0.16473952
134	0xbf28895a	-0.6583458
135	0x3e77dc73	0.24205188
136	0x3e8db188	0.27674508
137	0xbef18593	-0.47172222
138	0x3e1ff49d	0.15620656
139	0x3decde0e	0.11565791
140	0xbdde5bca	-0.10857351
141	0x3dd00edf	0.101590864
142	0xbef1d94b	-0.47236094
143	0x3e3c3882	0.18380931
144	0x3e82b163	0.2552596
145	0xbd3080a5	-0.043091435
146	0x3e8e93c1	0.27847102
147	0xbc8e8da8	-0.017401531
148	0xbf2b3873	-0.6688301
149	0xbf14c246	-0.5810894
150	0xbf2fce85	-0.686745
151	0x3e4b8d8b	0.19878213
152	0x3c95b2cb	0.018273732
153	0xbe4fbf38	-0.20287788
154	0x3eb3d68d	0.35124627
155	0xbf528166	-0.82228696
156	0xbe3b824b	-0.18311422
157	0x3dfef6e7	0.12449437
158	0xbeeef143	-0.46668443
159	0x3d9dbbb0	0.07701814
160	0xbe5f14ee	-0.21785328
161	0xbd9f693f	-0.07783746
162	0xbdf07cc1	-0.11742545
163	0xbdadb9d2	-0.08482708
164	0xbf578051	-0.8418017
165	0xbebce2cd	-0.36891785
166	0x3e8a9cc1	0.2707272
167	0xbcd3d725	-0.025859425
168	0xbf399eb2	-0.72507775
169	0x3db1b829	0.08677704
170	0x3ef9889a	0.4873703
171	0xbf0ba981	-0.5455552
172	0xbe904d65	-0.28184047
173	0xbede9927	-0.4347622
174	0xbcc958bc	-0.024578445
175	0xbeef5b27	-0.4674923
176	0x3e116362	0.14198068
177	0x3c922490	0.0178397
178	0x3ea6c632	0.32573086
179	0xbe5032d4	-0.2033189
180	0xbd0ad72e	-0.033896618
181	0xbdc4868d	-0.09595976
182	0xbe4379ee	-0.19089481
183	0xbe2520a7	-0.16125737
184	0x3e98af79	0.29821375
185	0xbd9cd6de	-0.0765817
186	0x3e1d9b31	0.15391232
187	0xbeaa9d6d	-0.3332323
188	0xbedc86ec	-0.43071687
189	0x3ea722ea	0.32643825
190	0x3e1c7673	0.1527956
191	0xbf10e7ad	-0.5660351
192	0x3e369512	0.17830303
193	0xbec9c285	-0.3940622
194	0xbea3b326	-0.31972617
195	0xbf448234	-0.76761174
196	0x3e6b3fc7	0.22973548
197	0x3e02e7e0	0.12783766
198	0x3d595dbd	0.05306791
199	0x3e335365	0.17512281
200	0xbf115534	-0.56770635
201	0x3e3d49c5	0.18485172
202	0x3e84e455	0.25955454
203	0x3e842c82	0.25815207
204	0xbe4f0c76	-0.20219597
205	0x3de47c44	0.11156514
206	0xbf21eb22	-0.6324941
207	0x3e1681fd	0.14698024
208	0xbdc61841	-0.09672595
209	0xbee050eb	-0.43811736
210	0x3dd11af2	0.102102175
211	0xbefb7bb4	-0.49117815
212	0xbec2a78b	-0.3801845
213	0x3e8e6a81	0.2781563
214	0x3e4cf3d8	0.20014894
215	0xbc37a388	-0.0112084225
216	0xbcb1abaa	-0.021688301
217	0x3c569545	0.013097112
218	0xbe44b5cc	-0.19209975
219	0x3e35015a	0.17676297
220	0xbf347eb4	-0.70505834
221	0xbe7c04f4	-0.24611264
222	0xbeaeb910	-0.34125566
223	0x3e5ae272	0.21375445
224	0xbdd0258e	-0.10163413
225	0xbe7d4fd2	-0.2473748
226	0x3d72c173	0.05926652
227	0xbd57cc49	-0.052685056
228	0x3da7c5c2	0.08192016
229	0x3cbfa788	0.023395315
230	0x3e5a02b9	0.21290101
231	0x3d8cd93a	0.0687737
232	0xbf821869	-1.0163699
233	0x3e7cce36	0.24688038
234	0x3def045d	0.11670754
235	0x3e3cff10	0.18456674
236	0x3c0ecdf8	0.008716099
237	0xbf81728c	-1.0113082
238	0x3dfd4c9e	0.12368129
239	0x3e630b1e	0.2217221
240	0x3e90d52e	0.28287643
241	0x3e285a93	0.16440801
242	0xbefd647a	-0.4949072
243	0xbf77c984	-0.96791863
244	0x3eb62e21	0.3558207
245	0xbd747b9d	-0.0596882
246	0xbebfa3cf	-0.37429664
247	0x3d6f3f82	0.058410175
248	0xbf03c2b4	-0.5146897
249	0x3e9c7be3	0.30563268
250	0xbeb53dd4	-0.35398734
251	0xbf24e9a9	-0.6441904
252	0xbf1f5a48	-0.62247133
253	0xbf1fe75f	-0.6246242
254	0x3db25a83	0.0870867
255	0xbd9639cb	-0.07335242

fc3.bias f4 [10]
0	0x3d912144	0.07086423
1	0xbe0f059b	-0.13966982
2	0xbd493e2f	-0.04913157
3	0xbe4de3d6	-0.20106444
4	0x3dc29659	0.09501333
5	0x3d5c92cf	0.053850945
6	0x3d80dbb5	0.06291906
7	0xbe3e38d3	-0.18576364
8	0x3dafc7bb	0.085830174
9	0xbcb19d38	-0.021681413
