OtherModels/numberModel(1).pth (torch, 440581 bytes, 6 tensors)

fc1.weight f4 [128, 784]
00000000: acc6 e8bc 4231 953c 5aef f13c f0b3 8cbc
00000010: 36ad c73c 54b7 0bbd 59a3 093d b86b 19bc
00000020: bc9e 0fbd 588b 5b3c c649 a33c b035 85bb
00000030: 70a0 ba3b 7845 8ebb a67b c53c 2fd0 0b3d
00000040: daa1 a33c e033 5e3c 70f7 b9bb 381e 7bbc
00000050: 834f e2bc 84a2 723c 8180 043d 305e 11bd
00000060: f325 c9bc b822 e7bc 9ccf 913c eec8 f83c
00000070: f8f1 f33b c259 ea3c ed30 0c3d ce4f f03c
00000080: e61d df3c 5ab6 d13c 4281 873c 428c 9c3c
00000090: fe80 893c f966 0a3d 1517 cabc e0c7 cf3a
000000a0: 9203 cb3c 724e df3c 63b7 b2bc 1e4b 89bc
000000b0: 103e b23c c062 093a 7c49 c3bc 6a41 e5bc
000000c0: 18c1 9e3c c6e1 08bd 0083 7839 8cd3 e8bc
000000d0: b28d f33c a855 0fbd 4c48 edbc 0882 b9bb
000000e0: 72c6 cc3c b8df 873c 8052 a93c 28b2 9a3b
000000f0: b779 0b3d 43fc acbc a871 6f3c f77f a4bc
00000100: 8006 54bc 0c84 823c 14fe 683c 7f9a 23bb
00000110: 627d 913c 2ddf cbbc 0c14 8d3c 6009 583c
00000120: b56e 0ebd 3ad7 1e3c ea92 d0bc 94db abbb
00000130: ca07 49bc c847 843b 8752 06bd e2f6 04bd
00000140: 26c7 02bd 0663 69bc 5787 92bc c2e9 df3c
00000150: 8041 273c e09a 09bd 5055 a33b c009 8e3a
00000160: a007 3abc cc5c f1bc c06d a4bb 2650 e83c
00000170: faf6 e1bc 1803 413c 908f 6ebb ddca 26bd
00000180: 23d1 ffbb 74e5 1d3c 863d 52bd 00e6 c1bc
00000190: 77eb eb3a 4ac6 0ebd 600d cd3c 0011 cbbc
000001a0: f409 d03c 9ac7 a23c 1ea3 83bc 606c 0d3c
000001b0: 1582 10bd c06a bcbc 1cdf e3bc d04d 363b
000001c0: 760f 9e3c 2e85 19bc 2d9f 0f3d f2e4 a53c
000001d0: dc9c c1bc 3890 a73c cf23 8ebc 3023 26bc
000001e0: 9244 063c 7e51 b53c f0d8 1dbd 5ff0 6e3c
000001f0: 3c31 073d 1f26 843c baab 163d 5179 1fbc
00000200: 3a18 02bd 45af 63bd 0d73 13bc 0ad7 a3bc
00000210: f33b 10ba 8946 22bd 96a9 b23c 259b f1bc
00000220: 6324 0a3d 2a77 f3bc 6567 00bd 8cda cfbc
00000230: acd2 d63c 129e 67bc 8704 0b3d 9c5b 02bd
00000240: 8be0 d43c 4696 863c 9437 ff3b 7dba 9a3c
00000250: 8dca af3c 917d dabc 78c2 eebc 554d a3bc
00000260: a387 983c 969e e33c f01c b6bc 5412 32bd
00000270: 602a f53b b981 18bd 0d86 9e3c c9db 65bc
00000280: 5663 743c adec af3c 8180 d93b 1d32 bdbc
00000290: 8bea 6bbc 8805 7e3c e81b 673c a086 78bb
000002a0: 6122 023d 281b 823c 70e5 58bb aa5d 62bc
000002b0: b19b 69b8 9ca1 ccbc 1386 c0bc 00e6 36bc
000002c0: 04bb c1bc 025e 8abc fb7d f5bc de77 e2bb
000002d0: 9c7b 33bd 4b3e 0d3b 895c 21bd a29d 353b
000002e0: e427 f8bb 2fd5 23bd 8f58 edbc 531a 33bd
000002f0: 3f07 1ebd 31cd 943c d9d5 df3a 9533 05bd
00000300: c857 a5bb 5dd7 0abd 90b5 523c 86b8 f63c
00000310: 0eeb c2bc 2a1f 57bc b037 573c 6a1a b2bc
00000320: b7a9 aebc ba42 2fbd 9155 14bd b4fb a0bc
00000330: 0c7d acbc 7ef3 1fbd e3be 31bc d972 01bd
00000340: ba91 41bd 2555 e0bc bf30 ec3b 8366 00bc
00000350: 3291 aa3b 7a09 373d ae73 a03c 94b2 963b
00000360: 2474 893c 9e83 61bb 6179 19bd 1592 11bb
00000370: abd4 373c 4a25 06bc 114f 103d 4114 043d
00000380: 78bc 00bc 9b01 11bd aca7 f6bc 5812 c7bc
00000390: 6ec0 7d3c 18a5 203c 2c3a c4bb 899b 193c
000003a0: fcc3 e2bc 8c8d 1bbd 3eec 45bd 716b bb3c
000003b0: a748 9dbb 54bb 05bd bff5 783c fe4e 6cbb
000003c0: 303d acbc 423d 1e3b 4c0d 8abc 79bd 2cbd
000003d0: 98ab f5bc 0025 a83c 3971 cdbc 5b02 bc3b
000003e0: d5e0 733c c64d 993c 1bb3 01bd 285e ddbc
000003f0: a0da 273c 9405 263c c837 02bd 7c5c 6ebc
-0.028415047 0.018211965 0.029533077 -0.017175645 0.024374586 -0.034110382 0.033603046 -0.009364061
-0.03506349 0.013399921 0.019932639 -0.004065238 0.005695395 -0.0043417774 0.024106812 0.034134086
0.019974638 0.013562173 -0.005675249 -0.015327029 -0.027625805 0.014809255 0.032349113 -0.035490215
-0.024554228 -0.028214797 0.017799191 0.030369248 0.0074446164 0.028607253 0.034226347 0.029334929
0.027235936 0.025599647 0.016541127 0.019109849 0.016785141 0.03378961 -0.02466921 0.0015852414
0.024781976 0.027259085 -0.021815961 -0.016759451 0.02175811 0.000524085 -0.023838751 -0.027985293
0.019379184 -0.03341844 0.00023699924 -0.028421186 0.029730652 -0.034993798 -0.028965138 -0.005661253
0.02499697 0.01658617 0.020669222 0.004720945 0.034051623 -0.021116382 0.0146145 -0.02008055
-0.012941003 0.015932105 0.014220733 -0.0024963913 0.017759982 -0.024886692 0.017221473 0.013185829
-0.034773547 0.009694869 -0.02546068 -0.0052446816 -0.012269923 0.0040368773 -0.032793548 -0.03246201
-0.031928204 -0.0142448 -0.0178868 0.027333144 0.0102084875 -0.033594966 0.0049845353 0.0010836646
-0.011354357 -0.029463194 -0.005017966 0.02835853 -0.027583588 0.011780523 -0.0036401488 -0.04072081
-0.0078069135 0.009637225 -0.051328205 -0.023669243 0.0017999251 -0.034857072 0.025030792 -0.02478838
0.025395371 0.019870568 -0.016068991 0.008631796 -0.035280306 -0.023000121 -0.027816348 0.0027817376
0.019294482 -0.009370131 0.03506391 0.020250771 -0.023634367 0.020454511 -0.01735106 -0.010140225
0.008195059 0.022133585 -0.038536966 0.014583676 0.033005938 0.016131459 0.036784865 -0.009733514
-0.031761386 -0.055587072 -0.008999598 -0.02 -0.0005502097 -0.03961805 0.02180938 -0.029492924
0.033726107 -0.029719908 -0.031348605 -0.025372766 0.026223503 -0.014136808 0.033939864 -0.031825647
0.025985977 0.016429078 0.007788608 0.018887753 0.021458888 -0.026671203 -0.029145464 -0.019934336
0.018619364 0.02778558 -0.022230595 -0.04347451 0.007481858 -0.03723309 0.01935103 -0.014029452
0.014916262 0.02147516 0.0066376333 -0.023095185 -0.014399181 0.015504248 0.014105774 -0.003792204
0.031771068 0.01588209 -0.003309574 -0.013816277 -5.5696528e-05 -0.024979405 -0.023501432 -0.011163235
-0.023648746 -0.01689053 -0.029967299 -0.006911262 -0.043819055 0.0021552022 -0.03939489 0.0027712365
-0.0075731147 -0.03999823 -0.028972892 -0.043726277 -0.03858113 0.01816425 0.0017077281 -0.032519896
-0.0050458647 -0.033896793 0.012860671 0.030117285 -0.023793723 -0.013129989 0.0131358355 -0.02174111
-0.02132116 -0.042788245 -0.036214415 -0.019651271 -0.02105572 -0.03905057 -0.010848734 -0.031603668
-0.047258116 -0.02738435 0.0072079594 -0.007836941 0.005205297 0.044686772 0.01958641 0.004598925
0.016779013 -0.0034410725 -0.03746927 -0.0022212316 0.011220138 -0.008187601 0.035231654 0.032245878
-0.007857434 -0.03540192 -0.030109249 -0.02430074 0.015487773 0.009804986 -0.00598838 0.009375461
-0.027681343 -0.037976786 -0.048321 0.02287838 -0.0047999206 -0.032649353 0.015195309 -0.0036057825
-0.02102527 0.00241454 -0.016852044 -0.042172883 -0.029989049 0.020525455 -0.025078403 0.0057375855
0.014885147 0.018713843 -0.03166495 -0.027022436 0.010244995 0.010133166 -0.03179148 -0.014548417

fc1.bias f4 [128]
00000000: 01d3 03bd 8b89 743f dca9 7abf aa9f d13c
00000010: d3dc 6fbe 76fd 08bf f3bd 1bbf 6bbc eebc
00000020: 60a0 45be dd03 33bf fff9 e1bd 5fb2 aabd
00000030: e82e cdbe 9e8a 8fbe b80e 35bf 6597 44bf
00000040: c0f0 5ebe 7ebe 3dbf 87bb 63bf c782 8c3f
00000050: d1ac 07bf d76b 0ebf 077c e7be 32be 69bf
00000060: 0f98 05bf 83f8 94bf c0a8 34bf 4d32 37bd
00000070: 5664 b4bd f82c ccbd 1573 67bd e12f 44bf
00000080: a296 16bf 36ae 81be 865e 41be e6f3 5bbe
00000090: 4815 3bbf 56ac 24bf aac4 32bf 9b8c d33e
000000a0: 456a a7be 5d10 98b9 c0b1 41be b430 36bf
000000b0: 17bf 81be 8505 14bf f07f 5bbe 3634 1339
000000c0: c78d 03be 43c1 46bf 3cef dcbc a9ea 51bf
000000d0: 096a fdbb eca3 0bbe 323f 4cbf 359c 52bd
000000e0: 8288 b6be b0b3 fcbc fbaf 51be 7d29 cd3d
000000f0: 1156 34bf 1118 1e3e e16d 5cbf 6f6d 89be
00000100: d8e7 f2be 3925 c8be ccaa 93bd 9c18 82be
00000110: 5c9c e73d b925 ce3d b476 7ebf 46aa f8be
00000120: a7ea 51bd 4b15 6ebf 66bb 80bf 3751 20bf
00000130: 4d95 a0be bbc7 09be df9c 8dbe e4fe 52be
00000140: 0332 86bd 7985 45bf 108d 8abd bc13 4c3c
00000150: ea6a 61bf a64f 063f 7b27 d9be cf70 9bbe
00000160: 2b27 56be 2278 33bf c08c 5ebe a8b2 11bf
00000170: 7771 e6bd 7359 62bf b245 59bf 9d20 1bbf
00000180: ba35 09bd a05a 9fbe 554e b4bd 35de 75be
00000190: 4546 f13d ea86 d0bc 0a22 42bf 2508 35be
000001a0: fb56 e4bc 5ce2 95be f11b 0ebf d9ff 19bf
000001b0: 5b8e febe c0ef 37bf 2905 4bbf a302 0dbe
000001c0: 2036 903e d6b8 d3be 1707 80be 4805 28bf
000001d0: 0e1d 60be 03aa 9dbc 0202 523e 1eb9 69bf
000001e0: 259e 78be bdc3 a5be 9304 35bd 7501 a0be
000001f0: 0516 0ebf 7cc8 b53f 1047 84bf 6760 00be
-0.03218365 0.95522374 -0.97915435 0.02558883 -0.23424082 -0.5351175 -0.60836715 -0.029142579
-0.1929946 -0.6992777 -0.11034011 -0.08334803 -0.4007485 -0.28035444 -0.70725584 -0.7679351
-0.21771526 -0.74118793 -0.8895802 1.097741 -0.5299807 -0.556333 -0.45211813 -0.9130584
-0.5218515 -1.163834 -0.7056999 -0.044725705 -0.088082 -0.099695146 -0.056506235 -0.7663556
-0.588236 -0.25328225 -0.18883714 -0.21479759 -0.7307935 -0.64325464 -0.69831336 0.4131821
-0.32698265 -0.0002900389 -0.18915462 -0.71168065 -0.25341102 -0.5782092 -0.21435523 0.00014038463
-0.12847053 -0.77638644 -0.026969545 -0.8199869 -0.0077335876 -0.1363675 -0.7978393 -0.051418502
-0.35651022 -0.0308474 -0.20477287 0.10017679 -0.70443827 0.15438868 -0.8610516 -0.26841304
-0.47442508 -0.390909 -0.07210311 -0.254094 0.1130912 0.10065789 -0.99399877 -0.48567408
-0.051249173 -0.9300124 -1.005719 -0.62623924 -0.31363907 -0.13455097 -0.27658746 -0.20605046
-0.06552508 -0.7715679 -0.06765187 0.012455877 -0.8805376 0.52465284 -0.42412934 -0.30359504
-0.20913379 -0.70105183 -0.2173338 -0.5691323 -0.112521105 -0.8841774 -0.8487197 -0.6059664
-0.033498503 -0.3112383 -0.08804003 -0.24010547 0.11780981 -0.025454957 -0.7583319 -0.17678888
-0.027873507 -0.2927426 -0.55511385 -0.6015602 -0.49717984 -0.71850204 -0.7930475 -0.13770537
0.28166294 -0.41351956 -0.2500541 -0.6563306 -0.21886083 -0.019246107 0.20508578 -0.9129809
-0.24279077 -0.323759 -0.044193815 -0.31251112 -0.5550235 1.4201808 -1.0334187 -0.12536775

fc2.weight f4 [64, 128]
00000000: 9426 2cbc 4a11 babe b26a 693e ecd0 993d
00000010: 23e2 853e 2196 f43e 3a06 febe 5dc5 e43a
00000020: 2ca5 863e 866d 333f 9eee 7a3f 65c2 023f
00000030: 0598 703e 0973 e8bb da64 90bd 7e0a 373f
00000040: 3cf6 413f 104b cbbd 4d26 0bbe 9146 02bf
00000050: e89c 033e bee6 54bf 0028 053f 6548 b33d
00000060: b844 283e 875b dbbe 8435 4d3f 314f 80bc
00000070: 2088 793e 128e 69be c86f 93be eb1d cd3b
00000080: 7999 753e c38a 983c a38e 253d 844d 803e
00000090: 3da7 023f 69ad 1abe 3635 0cbf dc6b 61bf
000000a0: b0f6 243e 7d5e 953d eae5 ad3f c69f 983e
000000b0: c810 6b3e e729 f03e 72d3 73bf e6c9 fd3b
000000c0: de66 e33e 9498 0fbf 660a f13d 0894 a73e
000000d0: 7afc b63e bf69 4d3e 827e 23bf 22e8 1fbd
000000e0: 71e0 23bf 0749 1cbd a6f7 8fbd bc68 30bf
000000f0: a0d8 e0be 6b30 7c3e 1276 8dbe 25b9 6f3f
00000100: dd1e 3abf 91d5 e1be 9c54 6b3d 5641 48be
00000110: 07ad bebe 2240 973e f9ce d83c edb7 603e
00000120: eb64 693c 50e6 293e 7d6b 733e a4a7 833d
00000130: bd7e a9be 2ecf 513d 1407 5c3e 85c9 813e
00000140: 3e25 debc 9e77 333e e837 bb3e 0c6f 953e
00000150: 7be5 eabe 8177 203f 0fab ff3e 0e25 123e
00000160: 26a9 b2be b12b 3b3e f5bc bdbc ac85 72bd
00000170: c24b de3d 5376 723e 8f5d 33bf a99d d1bd
00000180: e8ba 89be a2e0 8e3e f544 e23d 3eb3 5b3f
00000190: d6b5 003f 6272 9c3d 9593 92be 2e0e f53d
000001a0: cb43 77bc 338c 8a3e 52f0 c23b 94ed 1b3e
000001b0: aa8e 363e e2b0 79bd d821 18be 8968 233f
000001c0: c78b ee3d b898 e43c 745f 283e 9282 ffbd
000001d0: f76c 053e 964f 32bd 0ad6 2e3f 86ba 92be
000001e0: 7386 a53d 0aae bf3e ac5e b63d 9928 283b
000001f0: 0fc9 cc3e 9f33 a8be dfd1 6fbe 1599 2c3f
00000200: fbf5 313d eff7 fbbe 487b 9ebe 7a03 f7bc
00000210: 0a37 403e 59f3 1b3f 356d ae3e 89b4 aa3d
00000220: e946 aebe b6d5 0c3e b16d 1b3f ad29 dc3d
00000230: d599 8bbe b228 93be f9b3 8ebd 5600 643e
00000240: 2bad bb3e 2a2f bebd ad0a 613e c6ee 53bd
00000250: dba7 dabe f58d a43d c739 e03d cc37 01bf
00000260: 622c 7abe ce9f 20be 7efe 123e e86f 803d
00000270: 4ced 4bbf 5c5e b73e d05e e13d a9f1 c43e
00000280: 1a25 ccbe 5adf a5be f6b4 033e c236 69be
00000290: 5668 c73e df48 1ebe d98c eabd 209a 3bbe
000002a0: 174b 793e 9b89 8b3d 7814 95be cbdd 0e3f
000002b0: f8f2 663d c1ff 813e 199a 16be 77f4 463c
000002c0: eb66 04bd 143b 143f 4154 b53d 58bc ab3e
000002d0: c432 df3e 43f1 913e 47df 453c dfc6 cabc
000002e0: 7c4d debd e259 b03d 2b98 69be 8a34 e93e
000002f0: bc57 343e 900e 713d 7627 b43e 59a6 0bbe
00000300: f488 763f b391 97bd 0703 cabd f5fb 013f
00000310: a249 a23e 06bf c33d 86d5 85bb c696 163f
00000320: 3e87 debc eda9 59bc 1805 b7bd e78d 113e
00000330: 3b0d 823e c5c1 dd3d 72db 09bd c3c8 8f3e
00000340: 2b40 123d 2574 953e 9a1d 33bf 70ec 0b3e
00000350: 2f03 c33e 40b7 60be 24b1 bbbd 0ce0 033f
00000360: d2df f63e a4a6 193e db52 2bbf 9f76 4abd
00000370: b958 8c3e 97be 563f d3df 18be e710 063f
00000380: 8e3c 3fbe 3a81 143f 14d0 6a3e 4a38 25be
00000390: da63 f1be e9e6 6dbd 9189 b83e 18da 533e
000003a0: c98b 103d 2d9e a03e 5508 553d 962f 0c3d
000003b0: 41b1 30bc 6ec7 b6be 7bc1 833e 67f3 2d3c
000003c0: ed85 803d 0552 06bf 4d14 09bf 54d2 203c
000003d0: d966 98be c3eb e43d 30be fa3e 6535 52be
000003e0: 02f6 e73d 03da be3e 8be0 b23d 2beb b0bd
000003f0: 93ff 8dbe caad 33bf 45e1 0cbf ed37 0abd
-0.010507245 -0.36341316 0.22794607 0.07510552 0.2614909 0.4777079 -0.49614125 0.0017453838
0.2629789 0.70088995 0.9802035 0.5107787 0.23495491 -0.0070937914 -0.07050486 0.71500385
0.7576635 -0.099264264 -0.1358883 -0.50888926 0.12852824 -0.83164585 0.5201416 0.087540425
0.16432464 -0.42843267 0.80159783 -0.015662761 0.24368334 -0.22808102 -0.2879622 0.00625967
0.23984326 0.018620854 0.040419232 0.2505914 0.51036435 -0.15105213 -0.54768693 -0.88055205
0.16109729 0.07293413 1.3585789 0.29809397 0.2295562 0.4690697 -0.95244515 0.0077450154
0.4441442 -0.5609219 0.117695615 0.32730126 0.357395 0.2005987 -0.6386491 -0.03903974
-0.64014345 -0.03815558 -0.07029657 -0.6890981 -0.43915272 0.24627845 -0.27629143 0.93641883
-0.72703344 -0.4410825 0.057453737 -0.19556174 -0.37241384 0.29541117 0.02646588 0.21945162
0.014245252 0.16591763 0.23771472 0.06428459 -0.33104506 0.051222973 0.21487075 0.2534906
-0.027117368 0.17526099 0.3656609 0.29186285 -0.45878205 0.6268235 0.49935195 0.14271948
-0.34894675 0.18278386 -0.02316139 -0.05920951 0.108542934 0.2367795 -0.70064634 -0.102351494
-0.2690041 0.27905756 0.11048309 0.85820377 0.5027746 0.07639004 -0.2862822 0.11965595
-0.015091847 0.2706009 0.0059490586 0.15227348 0.1782786 -0.060959704 -0.1485666 0.63831383
0.11647754 0.027904853 0.16442662 -0.12476076 0.13029848 -0.04353293 0.6829535 -0.2865793
0.08082285 0.3743747 0.08904776 0.0025658964 0.39997146 -0.32851884 -0.23419903 0.67421085
0.043447476 -0.49212596 -0.3095343 -0.030153025 0.18770996 0.60918194 0.34067693 0.083352156
-0.34038475 0.13753399 0.6071425 0.107501365 -0.27265802 -0.28741986 -0.06967921 0.22265753
0.36655554 -0.092863396 0.21976729 -0.051741384 -0.4270619 0.08034889 0.1094852 -0.50475764
-0.24430993 -0.1568596 0.14354894 0.062713444 -0.7965896 0.35814178 0.11004412 0.38465622
-0.39872056 -0.32396966 0.12862 -0.22774795 0.3894679 -0.15457486 -0.11452646 -0.18320513
0.24345051 0.068133555 -0.2911718 0.5580718 0.056384057 0.25390437 -0.14707221 0.012143246
-0.032324713 0.57902646 0.08853961 0.33542132 0.4359342 0.2850438 0.012077159 -0.024753032
-0.10854623 0.08610894 -0.22811954 0.45547897 0.17611593 0.05885178 0.35186356 -0.13637675
0.96302724 -0.07400837 -0.09863859 0.5077508 0.31696802 0.09557919 -0.004084292 0.5882381
-0.027164098 -0.013285142 -0.089365184 0.14214288 0.2540072 0.10827974 -0.033656545 0.28082857
0.035705727 0.29190174 -0.69967043 0.13664412 0.38088366 -0.21944904 -0.09164646 0.51513743
0.48217636 0.15004975 -0.669233 -0.049429532 0.2741144 0.8388457 -0.14929132 0.5236954
-0.18675444 0.58009684 0.22930938 -0.16134754 -0.47146493 -0.05808154 0.36042455 0.20688665
0.03528956 0.3137068 0.0520099 0.03422507 -0.010784448 -0.35699028 0.2573355 0.010617114
0.06275544 -0.524689 -0.535466 0.009815771 -0.29765967 0.111777805 0.48973227 -0.20528181
0.11326219 0.37275705 0.087342344 -0.08638605 -0.2773405 -0.70187056 -0.55031234 -0.03374474

fc2.bias f4 [64]
00000000: 842f 80bf 3942 3ebf a6ff 9cbf 3d36 21bf
00000010: c9fc 3fbf b2b3 75bf 9575 39bf c45a 06bf
00000020: 2197 69be 9328 72bf c3d8 61bf 52d3 38bf
00000030: 077e c4be d4d1 3fbe 23ab 98bf a8d8 4bbf
00000040: 5e54 58bf 3f90 93bf aeec f0be 2a5f 68bf
00000050: 3ca6 6fbf 9483 14bf 2061 07be 5e8d 3bbf
00000060: fed6 19bf 85c5 3ebf 5661 9abf b298 f0be
00000070: c72f 2ebf d90d 48bf c65a c2bd 7de2 61bf
00000080: 2dfa 05bf ec9b 9ebe a2d9 97be bdd9 4fbf
00000090: 8a07 30bf ba91 24be 6e37 abbf 5df5 68bf
000000a0: 3b8f 11bd 3767 2bbf 07b0 53bf 0cb6 4bbf
000000b0: b48b 86bf 3593 70bf dd5b d9be 5859 84bf
000000c0: 7608 67be e631 82be 6787 d43e 8e96 66bf
000000d0: 2fd4 1fbe 1c76 84bf 4101 8abf 1172 99be
000000e0: 0d16 7abf 0dc9 32bf 49f0 d8be 6fcc 3bbf
000000f0: 125c 2abf b696 b2bf d278 b1be 666c bfbe
-1.0014501 -0.743198 -1.2265518 -0.62973386 -0.74995095 -0.9597732 -0.7244504 -0.5248225
-0.22811557 -0.9459316 -0.8822138 -0.7219745 -0.383774 -0.18732387 -1.1927227 -0.79627466
-0.84503734 -1.1528395 -0.47055572 -0.9077021 -0.9361303 -0.5801327 -0.13220644 -0.73262584
-0.6009368 -0.7452014 -1.2060955 -0.46991497 -0.6804165 -0.7814613 -0.0948997 -0.8823622
-0.5233486 -0.30978334 -0.29658228 -0.8119162 -0.68761504 -0.16071215 -1.3376291 -0.90999395
-0.035536986 -0.6695437 -0.8269047 -0.79574656 -1.0511384 -0.9397462 -0.424529 -1.0339766
-0.22561821 -0.25428694 0.41509554 -0.9007348 -0.15608285 -1.0348544 -1.0781633 -0.29969838
-0.97689897 -0.6983803 -0.42370823 -0.73358816 -0.6654674 -1.3952243 -0.3466249 -0.3738739

fc3.weight f4 [10, 64]
00000000: e266 39bf c696 06bd f6f9 30c0 7397 01bf
00000010: 7674 8dbf 9643 7cbf 2f9c d9be efea 3ebf
00000020: 8e94 cdbd c59e b8bd 40bf 81be 2154 1fc0
00000030: 4c88 89be aada 34bf bd8a 55bf faf1 e9bd
00000040: 9e52 82bf 13c9 64bf 96c8 f8bf 1403 83bf
00000050: 84db a5bf 3e5d bfbf 06cb 7dbf 6520 24bf
00000060: 0f46 90bf bf20 f1be 8047 8dbe aba7 3ebe
00000070: f68a ffbe 2124 63bd 58ad 9ebf 19ae dcbe
00000080: 4769 b6be ce0a 5dbf d1f1 56bf b876 f9be
00000090: d51c 81bf 42b4 89bc 0f29 cfbf c384 c0be
000000a0: 4ff8 b8bf 619d 4ebf 428a 8ebe 0bcd 0fbf
000000b0: 3e11 82bf 5f37 57bf dcea cdbe c727 fdbe
000000c0: 41d9 23bf d86d 8ebe ccfb 8dbe bd28 c4bd
000000d0: adb1 90bf 3ba2 24bf 4abe 03bf abf2 61be
000000e0: 7b04 69be 7dd1 68bf 2f70 69bf 80f2 acbe
000000f0: 2471 0bc0 de61 74bf a518 b7bf 6d60 54bf
00000100: dd00 90bf dd08 0ec0 859b 07bf 4ddd 32bf
00000110: 34d9 22be 60cb 983e 7fdc 9dbf dbb0 e1be
00000120: ba31 5fbe 4477 b3bf 56b6 56be 4aba 4dbe
00000130: c870 95bf b3f9 f1be 1a8a 353d d59d f9bf
00000140: 8a58 ee3c cc08 d13c 3258 b3be 41b2 8fbe
00000150: e9eb 8fbf 0b3f f2be 16c2 bfbf 1e48 a4bf
00000160: 740a 3cbf e425 acbf 4336 56bf 4135 bcbf
00000170: 807f 82bf cfe8 d6bf d6e1 58bf 4dc4 b4bb
00000180: 77b7 46c0 b7e2 47be d6d5 49bf ad70 3abf
00000190: a7f1 93bf a373 93bc 305f 23be 79b7 8fbf
000001a0: c2f1 1dbf e2cf 88bf 5fc8 59bf 83df 00bd
000001b0: 26c8 8dbc 0e15 dcbf 04d9 57bf f235 f33a
000001c0: 845a b1bf 4ea6 d5bf 6d0a 92bf 5fed 99bf
000001d0: 3c94 0bc0 cc2a bebe c822 07c0 f734 86bf
000001e0: 0484 f0bf 1946 79be ba9c 89be 214c 27bf
000001f0: 35d6 01be 5b71 2cbc dce0 3abf 28a3 a0bf
00000200: f10c 61bf 610e e8bc 8b5e 79be dea9 4cbf
00000210: 8eba 23bf 454e 57bf b69d cdbe 3925 a0bc
00000220: 59da a23c 7f5d 43bf b3db 8fbf 446c 90bf
00000230: 1d19 96bf ac2e 79be e311 44bd 3282 82bf
00000240: 6ae9 7cbf 47bd 31bf a420 99bf b4ae 82be
00000250: 611c d9be 0f71 48bf 88a1 11bf 1131 33bf
00000260: c18a ebbd 3a8f 15bf 5e19 35be 3b9f 0e3c
00000270: 56d5 8dbf ac3d 0bbf 2267 09bf 7d6c f2bc
00000280: 4f70 b9bf 0dca 36bf c2b8 f9be 3dc2 31bf
00000290: 11c7 24bf 3301 753d b266 86bf 9007 76be
000002a0: 8f79 4fbf 75b7 8bbf 4c8e bebf 58cd 3dbf
000002b0: fd8e 453d 0ad0 50bf bafd 68bf ca5d dcbe
000002c0: 82f2 9fbf cf5d b2bf 2ca3 e3be 13fa c2be
000002d0: 1119 c5bf 3f74 69be 67f9 7bbf 85e6 80be
000002e0: 09c3 9abf 494f 68be 53ed 64bf 1c4f 90be
000002f0: f9f0 6dbf 223a e2bd d725 7bbf 7f77 2ebe
00000300: 6e7d 85be 7852 b0be ccb8 0cbf c7b3 6cbe
00000310: 8fef 59be 6630 4cbf 8ff7 d9be a1cb 7cbf
00000320: 3f6a 9ebd b288 b9bf 2303 a1bf 22f1 f1bf
00000330: a6ab 39bf e977 16bf b09d 25bf 41ba 11bf
00000340: 2e83 a2bf ef8e c8be d05b 8bbf 76ab 1abe
00000350: 1d80 4dbd 1657 93be dad0 bcbe 326b a2bf
00000360: e61a 32bf 03b4 58be c621 1a3e 2266 41bf
00000370: 007a 57bf bdcc 55bf f083 5bbf b051 6ebd
00000380: 6846 32bf 12db 56bf aedc 6cbe 06a8 b9be
00000390: 9902 a9be 0dbd 91bd f51d 53be 5939 6cbf
000003a0: 1f7f 12bf 3a15 68be e38a 2cbf d8f9 2bbf
000003b0: 6f5b 5abf 1099 23bf 2a07 82bf f0e7 6abf
000003c0: caee 80bf b789 43bf 8208 5ebf ae7c 83bf
000003d0: dd03 6ebf a4cb d0bd dfde 9cbf 4bdc 9fbf
000003e0: 1630 8fbf 6b0d f5be d863 adbf 5d3e 02bf
000003f0: 5d85 88bf 3850 25be 3a8b 0fc0 b307 69bf
-0.7242261 -0.032858633 -2.7652564 -0.5062172 -1.1051166 -0.9854063 -0.4250197 -0.7457723
-0.100381 -0.09014658 -0.25341225 -2.4895098 -0.268618 -0.70646155 -0.8341482 -0.114231065
-1.0181463 -0.89369315 -1.9436214 -1.0235314 -1.2957616 -1.495033 -0.99137914 -0.6411193
-1.127138 -0.47095296 -0.27593613 -0.18618648 -0.49910706 -0.055454377 -1.239665 -0.43101576
-0.35627195 -0.8634461 -0.8396273 -0.48723388 -1.0086924 -0.016809586 -1.6184405 -0.3760129
-1.4450778 -0.8070889 -0.27839857 -0.56172246 -1.0161512 -0.84068865 -0.40218246 -0.4944441
-0.6400338 -0.2781818 -0.27731168 -0.09578083 -1.1304222 -0.64310044 -0.51462233 -0.22065227
-0.22755615 -0.90944654 -0.91186804 -0.33778763 -2.1787806 -0.95461833 -1.4304396 -0.82959634
-1.1250263 -2.219291 -0.5297168 -0.6986893 -0.15903169 0.29842663 -1.2332915 -0.44080243
-0.21796313 -1.4020772 -0.20967993 -0.20090595 -1.1675043 -0.47260818 0.044321157 -1.9501292
0.029094953 0.02551689 -0.35028225 -0.28065684 -1.1243869 -0.47313723 -1.4981105 -1.2834508
-0.7345345 -1.3449063 -0.83676547 -1.4703752 -1.019516 -1.6789798 -0.847196 -0.005516565
-3.1049478 -0.19520079 -0.7884191 -0.7282818 -1.1558121 -0.017999476 -0.1595428 -1.1227866
-0.6169702 -1.0688441 -0.8507137 -0.031463157 -0.017307352 -1.7193925 -0.84315515 0.0018555506
-1.3855748 -1.6691377 -1.1409432 -1.2025565 -2.1809225 -0.37142026 -2.1114979 -1.0484914
-1.8790288 -0.24343146 -0.26877385 -0.6535054 -0.1267937 -0.010525073 -0.7299936 -1.2549791
-0.8791037 -0.028327169 -0.24352472 -0.79946697 -0.63956535 -0.84103805 -0.40159386 -0.019549
0.019879507 -0.7631454 -1.1238922 -1.128304 -1.1726414 -0.2433421 -0.04786862 -1.0195982
-0.9879366 -0.6942944 -1.1963086 -0.25523913 -0.42404464 -0.78297514 -0.568871 -0.69996744
-0.115010746 -0.5842167 -0.17685458 0.008704956 -1.108073 -0.5439098 -0.53672993 -0.029592747
-1.4487399 -0.71402055 -0.48773772 -0.6943701 -0.6436625 0.059815597 -1.050009 -0.24026322
-0.8104486 -1.0915362 -1.4887176 -0.74141455 0.048232067 -0.8156744 -0.91012156 -0.43040305
-1.2495883 -1.3934878 -0.44460428 -0.38081416 -1.5398275 -0.2279825 -0.9842743 -0.25175872
-1.209077 -0.22686495 -0.8942463 -0.28185356 -0.9294582 -0.11046244 -0.98104614 -0.17037772
-0.26072258 -0.3443792 -0.5496948 -0.23115455 -0.2128279 -0.7976135 -0.42571685 -0.98748213
-0.077351086 -1.4494841 -1.2579082 -1.8901713 -0.7252754 -0.5877672 -0.6469374 -0.56924826
-1.2696283 -0.3917155 -1.0887394 -0.1510447 -0.050171006 -0.2877738 -0.3687809 -1.2688963
-0.69572294 -0.21162419 0.15051946 -0.7554647 -0.8417053 -0.8351553 -0.85748196 -0.058183372
-0.6963868 -0.83928025 -0.23131058 -0.36261004 -0.33009794 -0.07116137 -0.20616896 -0.92275006
-0.5722522 -0.22664347 -0.67399424 -0.67178106 -0.85295767 -0.6390543 -1.0158436 -0.9176016
-1.0072873 -0.7638201 -0.8673173 -1.0272424 -0.92974645 -0.10195091 -1.2255515 -1.2489103
-1.118655 -0.478618 -1.3546095 -0.5087641 -1.0665699 -0.16143882 -2.2428727 -0.91027373

fc3.bias f4 [10]
00000000: da02 4cbe 671e 20bf fe8b 49bf 12cd 91bf
00000010: 1cc4 34be 5b83 f8be 2eda 64bf 53b7 38be
00000020: 848b 713f 5f44 e43e
-0.19922963 -0.6254639 -0.78729236 -1.1390707 -0.17652935 -0.48537716 -0.89395416 -0.18038683
0.9435351 0.44583413
